models/model_U_1.pt (torch_old, 42714 bytes, 192 tensors)

model.0.w f4 [1, 2]
000000 4f 52 e8 be 4c c6 83 3f
       -0.45375296 1.029489

model.0.u f4 [1, 2]
000000 54 43 97 be ee e7 4e 3f
       -0.29543555 0.80822647

model.1.w f4 [1, 2]
000000 0f b1 f7 3f 8c 48 c3 3e
       1.9350909 0.38141286

model.1.u f4 [1, 2]
000000 c8 7c 37 3f 73 79 6f 3e
       0.71674776 0.23386173

model.2.w f4 [1, 2]
000000 03 69 fb 3d be e1 dc bd
       0.12275889 -0.107852444

model.2.u f4 [1, 2]
000000 4b 10 96 bd 93 da d6 3e
       -0.073273264 0.41963634

model.3.w f4 [1, 2]
000000 17 7a 42 be 51 31 a4 3b
       -0.18991886 0.005010762

model.3.u f4 [1, 2]
000000 aa c3 6e 3e 46 e7 28 be
       0.23316827 -0.16494474

model.4.w f4 [1, 2]
000000 88 b6 6a bb 83 72 21 3e
       -0.0035814364 0.15766339

model.4.u f4 [1, 2]
000000 7f 5d 14 be 1e ec 11 be
       -0.14488791 -0.14250228

model.5.w f4 [1, 2]
000000 e8 f0 03 3b 60 a5 eb 3d
       0.0020132605 0.11506152

model.5.u f4 [1, 2]
000000 45 3d 34 be 9a 8b 65 be
       -0.17601497 -0.22416535

model.6.w f4 [1, 2]
000000 c5 28 2d be 98 f5 21 be
       -0.16910084 -0.15816343

model.6.u f4 [1, 2]
000000 b3 36 99 3e c7 32 07 3e
       0.29924545 0.13202964

model.7.w f4 [1, 2]
000000 7b a2 c4 3d 6e 17 c4 bd
       0.09601303 -0.09574781

model.7.u f4 [1, 2]
000000 6c 7e ee bd ad 8a a1 3e
       -0.11645207 0.31551114

model.8.w f4 [1, 2]
000000 2f e1 17 3e b3 f1 44 3e
       0.14831994 0.19232826

model.8.u f4 [1, 2]
000000 94 3d 74 be 02 74 21 be
       -0.23851615 -0.1576691

model.9.w f4 [1, 2]
000000 ec 33 02 3e 77 24 77 3e
       0.12715119 0.24135004

model.9.u f4 [1, 2]
000000 44 97 ba be 71 bd ba be
       -0.36443532 -0.36472657

model.10.w f4 [1, 2]
000000 89 91 30 3c c8 44 2d 3e
       0.010776886 0.16920769

model.10.u f4 [1, 2]
000000 04 7e c2 be 1d 43 1c bf
       -0.37986767 -0.61039907

model.11.w f4 [1, 2]
000000 c4 3e ac bb 9f 57 28 be
       -0.0052565057 -0.16439675

model.11.u f4 [1, 2]
000000 54 fd 8d 3e e2 40 f6 3e
       0.27732337 0.48096377

model.12.w f4 [1, 2]
000000 50 05 d5 bd 57 5c 1f 3e
       -0.10401404 0.15562569

model.12.u f4 [1, 2]
000000 34 ea 71 bd ac ca e4 be
       -0.059061244 -0.44685876

model.13.w f4 [1, 2]
000000 5b 46 c1 bf e2 fb 07 3f
       -1.5099596 0.5311872

model.13.u f4 [1, 2]
000000 ab 37 0d bf 27 46 e4 3e
       -0.5516307 0.44584772

model.14.w f4 [1, 2]
000000 84 76 5f 3f cc 58 ee bf
       0.87290215 -1.8620849

model.14.u f4 [1, 2]
000000 aa cb 87 3e e7 fa 19 bf
       0.2652257 -0.6014847

model.15.w f4 [1, 2]
000000 6f 8a 37 3d 66 ac a2 be
       0.044809755 -0.31772155

model.15.u f4 [1, 2]
000000 18 38 c9 be 66 7b 02 3f
       -0.3930061 0.5096954

model.16.w f4 [1, 2]
000000 99 7c e3 bf 04 28 f4 3f
       -1.7772399 1.9074712

model.16.u f4 [1, 2]
000000 31 af ce be 23 2f 07 3f
       -0.40368035 0.528063

model.17.w f4 [1, 2]
000000 63 4e 05 c0 68 be ff 3f
       -2.0829093 1.9979982

model.17.u f4 [1, 2]
000000 3e ac bc be d1 74 e5 3e
       -0.3685016 0.44815686

model.18.w f4 [1, 2]
000000 96 8e 53 3f 1a 72 c0 3f
       0.82639444 1.5034821

model.18.u f4 [1, 2]
000000 d3 ae ed bd 56 96 51 3f
       -0.11605611 0.8187002

model.19.w f4 [1, 2]
000000 98 4a 6f c0 77 01 35 3f
       -3.7389278 0.7070536

model.19.u f4 [1, 2]
000000 e2 96 33 bf 76 8c 9d 3e
       -0.70152104 0.30771226

model.20.w f4 [1, 2]
000000 04 ca 6d be f9 ed f6 3d
       -0.23221594 0.120571084

model.20.u f4 [1, 2]
000000 41 ac 28 3f c2 b8 49 bf
       0.6588784 -0.78797543

model.21.w f4 [1, 2]
000000 55 79 03 3e 1a 73 98 3e
       0.12839253 0.29775316

model.21.u f4 [1, 2]
000000 a3 ca 85 bf 51 a2 22 bf
       -1.0452465 -0.63528925

model.22.w f4 [1, 2]
000000 49 45 6a 40 5f 32 db be
       3.6604788 -0.42811868

model.22.u f4 [1, 2]
000000 d9 b1 5e 3f 3d 2a e7 be
       0.86990124 -0.45149413

model.23.w f4 [1, 2]
000000 80 88 8a be 63 2f 8d bd
       -0.27057266 -0.06893804

model.23.u f4 [1, 2]
000000 84 03 68 3f ef d5 9d be
       0.90630364 -0.3082728

model.24.w f4 [1, 2]
000000 bb d6 8b be be cb 53 bd
       -0.27312264 -0.051707976

model.24.u f4 [1, 2]
000000 e5 69 3e 3f 83 bd 90 be
       0.7438033 -0.28269586

model.25.w f4 [1, 2]
000000 bd cb 97 3f 8d 8f c1 3f
       1.1859051 1.5121933

model.25.u f4 [1, 2]
000000 6e 2a 68 3d d8 ec 13 3f
       0.05668109 0.5778327

model.26.w f4 [1, 2]
000000 50 a5 9a 3e 21 61 7b 3c
       0.30204248 0.015342982

model.26.u f4 [1, 2]
000000 d9 ff 3b bf 32 9b 3f 3f
       -0.7343727 0.74846184

model.27.w f4 [1, 2]
000000 e8 8d 7e 3e cb 61 1d 3e
       0.2485882 0.15369336

model.27.u f4 [1, 2]
000000 fe 2c 88 bf 23 1c c8 bd
       -1.063873 -0.09770992

model.28.w f4 [1, 2]
000000 72 d4 0a 3f 7b 1a 40 be
       0.54230416 -0.18760101

model.28.u f4 [1, 2]
000000 1b 12 a3 3d fe 5f 6a 3f
       0.07962438 0.9155272

model.29.w f4 [1, 2]
000000 17 cc 98 be fc 3a 90 3d
       -0.29843208 0.070425004

model.29.u f4 [1, 2]
000000 4e 55 cd 3e c2 75 53 bf
       0.40104145 -0.8260156

model.30.w f4 [1, 2]
000000 ad 3c 9e be e5 d7 6f bc
       -0.30905667 -0.014638876

model.30.u f4 [1, 2]
000000 f1 7c 60 3f 6a b5 f3 be
       0.87690645 -0.47599345

model.31.w f4 [1, 2]
000000 5a 25 0b 40 2b c7 88 3f
       2.1741548 1.0685781

model.31.u f4 [1, 2]
000000 4f e9 fd 3e a9 f0 46 3e
       0.49592063 0.19427742

exp_avg f4 [1, 2]
000000 23 e6 b5 bd 0a 00 ed bd
       -0.08881786 -0.11572273

exp_avg_sq f4 [1, 2]
000000 49 1b 6f 3d 3d f1 f7 3d
       0.05837563 0.121065594

exp_avg f4 [1, 2]
000000 e3 82 cc 3d 73 a8 d2 bc
       0.09985902 -0.025715088

exp_avg_sq f4 [1, 2]
000000 af 7a 6b 3e aa 4f 1d 3d
       0.22996019 0.03840605

exp_avg f4 [1, 2]
000000 fb 25 d8 3c af ba 52 3d
       0.026385298 0.051447567

exp_avg_sq f4 [1, 2]
000000 8d 7a 87 3b d7 e1 52 3d
       0.0041344822 0.05148491

exp_avg f4 [1, 2]
000000 a4 96 ea 3d 10 19 08 be
       0.11454514 -0.1329081

exp_avg_sq f4 [1, 2]
000000 6d c4 96 3e 66 ec 2c 3e
       0.29446736 0.16887054

exp_avg f4 [1, 2]
000000 7e 39 ac bd a4 9e a0 bd
       -0.08409403 -0.07842758

exp_avg_sq f4 [1, 2]
000000 ea b6 76 3d f7 19 cb 3d
       0.060233034 0.09917062

exp_avg f4 [1, 2]
000000 13 1b 64 3d 7c e7 78 bd
       0.055689882 -0.060767636

exp_avg_sq f4 [1, 2]
000000 7f 7e 52 3d 7b 90 fd 3c
       0.051390167 0.030952683

exp_avg f4 [1, 2]
000000 20 94 78 3d e7 d4 b3 3d
       0.060688138 0.08780842

exp_avg_sq f4 [1, 2]
000000 60 d3 79 3d 5f 2f cb 3d
       0.0609926 0.09921145

exp_avg f4 [1, 2]
000000 40 ea b6 3c 59 08 a3 bb
       0.022328496 -0.0049753604

exp_avg_sq f4 [1, 2]
000000 2f ce 7c 3d 86 3d 06 3d
       0.06172007 0.032773517

exp_avg f4 [1, 2]
000000 08 c0 ab 3b e6 a2 42 bc
       0.005241398 -0.011879658

exp_avg_sq f4 [1, 2]
000000 ea d9 c5 3a 3c 7c b1 3a
       0.0015094851 0.0013541053

exp_avg f4 [1, 2]
000000 10 43 3e 3d c9 6e fe bc
       0.046450675 -0.031058686

exp_avg_sq f4 [1, 2]
000000 a4 44 92 3c 6a 9d 21 3c
       0.017854996 0.009864191

exp_avg f4 [1, 2]
000000 34 de 81 3c 14 5b e4 bb
       0.015853025 -0.006968865

exp_avg_sq f4 [1, 2]
000000 04 18 1a 3b 6a 57 02 3b
       0.002351285 0.0019888529

exp_avg f4 [1, 2]
000000 83 fb 30 3d 15 c5 f8 bc
       0.04320861 -0.030367414

exp_avg_sq f4 [1, 2]
000000 d2 cf 83 3c c9 a1 0b 3c
       0.016090307 0.008522459

exp_avg f4 [1, 2]
000000 90 0b 41 3c 5a e1 43 3d
       0.011782542 0.047822334

exp_avg_sq f4 [1, 2]
000000 a8 19 7c 3c d9 5c bc 3c
       0.015386976 0.022993492

exp_avg f4 [1, 2]
000000 b6 24 cc bd 2f 83 a5 3d
       -0.099679396 0.08081662

exp_avg_sq f4 [1, 2]
000000 1f 91 91 3d 6e 34 0a 3d
       0.07107758 0.033741407

exp_avg f4 [1, 2]
000000 a4 d8 77 bd 27 a9 96 bd
       -0.06050934 -0.07356482

exp_avg_sq f4 [1, 2]
000000 55 fd 43 3d fe b8 c7 3d
       0.047849018 0.09752081

exp_avg f4 [1, 2]
000000 cb a3 8c bd 3d 60 29 3d
       -0.068671785 0.041351546

exp_avg_sq f4 [1, 2]
000000 e5 6e 82 3d b3 2e 00 3d
       0.06368808 0.031294536

exp_avg f4 [1, 2]
000000 62 c5 80 3a db 25 f9 bc
       0.000982445 -0.030413559

exp_avg_sq f4 [1, 2]
000000 c5 a2 02 3c ef d9 3c 3c
       0.007973378 0.011526569

exp_avg f4 [1, 2]
000000 8b 8d 05 3d 43 81 e8 bc
       0.03260569 -0.02838195

exp_avg_sq f4 [1, 2]
000000 9d c9 9b 3d 18 63 0b 3d
       0.07606814 0.03403005

exp_avg f4 [1, 2]
000000 f0 ac be 3c 01 ee 0b bd
       0.023275822 -0.034162525

exp_avg_sq f4 [1, 2]
000000 a8 b5 71 3c f4 9b 7e 3c
       0.014752783 0.015540112

exp_avg f4 [1, 2]
000000 f9 c0 de bb 2c ff ed 3a
       -0.0067979065 0.0018157712

exp_avg_sq f4 [1, 2]
000000 9d 7c 20 3e fb 54 7f 3d
       0.15672536 0.062336903

exp_avg f4 [1, 2]
000000 62 03 77 3d 25 e9 76 bc
       0.06030596 -0.015070234

exp_avg_sq f4 [1, 2]
000000 41 cc af 3c 99 dc 5f 3c
       0.0214597 0.013663434

exp_avg f4 [1, 2]
000000 8b c7 11 3d b0 6c 93 bc
       0.03559069 -0.017996162

exp_avg_sq f4 [1, 2]
000000 57 af 8f 3c 4b bf f8 3b
       0.017539663 0.0075911633

exp_avg f4 [1, 2]
000000 64 db 60 bd 63 05 06 3c
       -0.054896727 0.008179995

exp_avg_sq f4 [1, 2]
000000 10 61 7f 3c 48 bf 1a 3c
       0.015587106 0.009445019

exp_avg f4 [1, 2]
000000 30 92 51 bd 82 80 ec 3c
       -0.051164806 0.028869871

exp_avg_sq f4 [1, 2]
000000 da 55 b7 3c d6 6d 1e 3c
       0.022379804 0.009669742

exp_avg f4 [1, 2]
000000 18 c7 8f 3d 6b bb 01 3d
       0.07020396 0.031672876

exp_avg_sq f4 [1, 2]
000000 73 0e 9f 3c 2e 4f 07 3d
       0.01941607 0.033034496

exp_avg f4 [1, 2]
000000 20 b5 0e 3d 8f 1f ec bb
       0.034840703 -0.0072059105

exp_avg_sq f4 [1, 2]
000000 ad 63 3d 3c 0a 12 cc 3b
       0.011559409 0.0062277364

exp_avg f4 [1, 2]
000000 c9 d8 61 bd 6e 4e 81 bd
       -0.055138383 -0.063137874

exp_avg_sq f4 [1, 2]
000000 78 03 cd 3c 16 9d 5f 3d
       0.025026068 0.05459317

exp_avg f4 [1, 2]
000000 6f 33 1b bc f6 fe b4 3d
       -0.009472712 0.088376924

exp_avg_sq f4 [1, 2]
000000 2d 8c c9 3c d4 83 04 3d
       0.024602974 0.032352284

exp_avg f4 [1, 2]
000000 9b 45 df 3c 23 22 b5 3c
       0.02725487 0.022111004

exp_avg_sq f4 [1, 2]
000000 c9 b8 00 3c d5 e6 a6 3b
       0.007856556 0.0050934353

exp_avg f4 [1, 2]
000000 f0 f3 45 bd fe fd 0e bd
       -0.04832834 -0.034910195

exp_avg_sq f4 [1, 2]
000000 7e 32 9c 3c 72 27 aa 3c
       0.019067045 0.020770762

exp_avg f4 [1, 2]
000000 ca 3f 87 bd ac fd cb bc
       -0.06603964 -0.024901234

exp_avg_sq f4 [1, 2]
000000 2f 62 d1 3c b0 7e 06 3d
       0.025559513 0.032835662

exp_avg f4 [1, 2]
000000 9d d4 cc bc eb 42 83 bc
       -0.025003726 -0.01602312

exp_avg_sq f4 [1, 2]
000000 e9 6e c4 3b d0 00 1e 3c
       0.005994667 0.009643748

exp_avg f4 [1, 2]
000000 dd eb 6a bc 36 62 96 bc
       -0.014338461 -0.018357377

exp_avg_sq f4 [1, 2]
000000 0f 0b 39 3b f5 4a 49 3b
       0.0028235351 0.0030714844

exp_avg f4 [1, 2]
000000 ef 2f c5 3c f9 ee 72 3d
       0.024070708 0.059309933

exp_avg_sq f4 [1, 2]
000000 f8 96 39 3c 6a 2a a4 3c
       0.011327498 0.020039756

exp_avg f4 [1, 2]
000000 e4 2b b3 bb 01 de d3 bb
       -0.0054678787 -0.006465674

exp_avg_sq f4 [1, 2]
000000 29 81 87 39 46 79 c7 39
       0.00025845438 0.00038046594

exp_avg f4 [1, 2]
000000 aa 18 d2 3c 73 d8 60 3d
       0.025646526 0.054893922

exp_avg_sq f4 [1, 2]
000000 03 c0 46 3c 9e e6 a5 3c
       0.01213074 0.020251568

exp_avg f4 [1, 2]
000000 25 65 47 bd 04 5e e7 3c
       -0.048680443 0.028243072

exp_avg_sq f4 [1, 2]
000000 78 1f 6f 3c 66 ea bc 3b
       0.014594905 0.005765247

exp_avg f4 [1, 2]
000000 fc 37 49 3c 98 ae 9b 3c
       0.012281414 0.019004151

exp_avg_sq f4 [1, 2]
000000 77 87 18 3c ff cf 4a 3c
       0.009309641 0.012378692

exp_avg f4 [1, 2]
000000 97 8b 88 ba 0d 87 a9 bb
       -0.0010417578 -0.00517357

exp_avg_sq f4 [1, 2]
000000 e1 63 26 38 3d 52 42 3a
       3.9670504e-05 0.0007412767

exp_avg f4 [1, 2]
000000 3c 3f fa 3b 8f d7 08 3d
       0.0076369327 0.033408698

exp_avg_sq f4 [1, 2]
000000 51 79 3d 3c a3 06 46 3c
       0.011564569 0.012086543

exp_avg f4 [1, 2]
000000 0f ad c2 3c 6b 97 b9 bc
       0.023764161 -0.02265521

exp_avg_sq f4 [1, 2]
000000 27 3d 7b 3c 73 0b dd 3c
       0.015334404 0.026982998

exp_avg f4 [1, 2]
000000 51 6b ba 3b 5b c1 f2 3c
       0.0056890626 0.029633215

exp_avg_sq f4 [1, 2]
000000 ff c8 02 3c 14 61 07 3c
       0.0079824915 0.008262891

exp_avg f4 [1, 2]
000000 43 4e 26 3e 25 af ca bd
       0.16240792 -0.098966874

exp_avg_sq f4 [1, 2]
000000 30 d2 8e 3e 32 f4 de 3d
       0.27894735 0.1088642

exp_avg f4 [1, 2]
000000 90 df d5 b8 89 f9 73 3c
       -0.00010198273 0.014891037

exp_avg_sq f4 [1, 2]
000000 f5 e0 26 3b 37 c0 c9 3b
       0.0025463675 0.006156947

exp_avg f4 [1, 2]
000000 36 2d 40 ba 37 59 8f 39
       -0.00073309557 0.00027341556

exp_avg_sq f4 [1, 2]
000000 50 9b c4 36 21 94 7f 38
       5.859336e-06 6.0934693e-05

exp_avg f4 [1, 2]
000000 7c 8e 57 bc 43 86 30 bd
       -0.0131565295 -0.043096792

exp_avg_sq f4 [1, 2]
000000 47 2f 8e 3c a3 54 9d 3c
       0.017356528 0.019205397

exp_avg f4 [1, 2]
000000 d6 10 60 3c 40 9b a0 bc
       0.013675889 -0.019605279

exp_avg_sq f4 [1, 2]
000000 70 26 80 3d ac 44 28 3d
       0.06257331 0.041081116

exp_avg f4 [1, 2]
000000 e2 cb 16 3c 6d ba 0c 3d
       0.009203883 0.034357477

exp_avg_sq f4 [1, 2]
000000 95 9f 30 3c dd 16 0c 3c
       0.010780235 0.008550373

exp_avg f4 [1, 2]
000000 fa c7 99 3c 42 5b a9 bc
       0.018772114 -0.020673398

exp_avg_sq f4 [1, 2]
000000 39 af 4a 3d 90 47 1c 3d
       0.04948351 0.038154185

exp_avg f4 [1, 2]
000000 8a 91 0d 3c 54 4b 09 3d
       0.008640656 0.033519104

exp_avg_sq f4 [1, 2]
000000 3f bc 39 3c e9 1e f4 3b
       0.011336385 0.007449974

exp_avg f4 [1, 2]
000000 c4 bb c7 bc 5c 6f 4f 3c
       -0.024381526 0.0126608275

exp_avg_sq f4 [1, 2]
000000 d9 c4 33 3c bf 08 e3 3b
       0.010972225 0.006928533

exp_avg f4 [1, 2]
000000 3e 08 d8 bc 14 a3 79 bc
       -0.026371118 -0.015236635

exp_avg_sq f4 [1, 2]
000000 8b 34 7f 3c 04 61 41 3c
       0.015576492 0.0118029155

exp_avg f4 [1, 2]
000000 0a cd 40 bd 32 66 3c 3d
       -0.04707054 0.0459959

exp_avg_sq f4 [1, 2]
000000 44 6a 51 3d c8 59 ab 3d
       0.051126733 0.08366734

exp_avg f4 [1, 2]
000000 24 0e b4 3a 78 ec d3 bc
       0.0013737124 -0.025869593

exp_avg_sq f4 [1, 2]
000000 19 50 6d 3c 98 d4 9b 3b
       0.014484429 0.0047555678

exp_avg f4 [1, 2]
000000 f6 c8 29 bc 0c b0 76 3d
       -0.010362854 0.060226485

exp_avg_sq f4 [1, 2]
000000 07 0f 68 3e 72 97 80 3e
       0.22661982 0.25115544

exp_avg f4 [1, 2]
000000 d8 12 bd bb 58 a0 51 bc
       -0.0057700686 -0.012794577

exp_avg_sq f4 [1, 2]
000000 45 64 0e 3c 16 5c 1e 3b
       0.008690898 0.0024163774

exp_avg f4 [1, 2]
000000 52 ff 51 bc b6 00 38 3c
       -0.012817221 0.011230638

exp_avg_sq f4 [1, 2]
000000 5b 4a 95 3b 10 1e 05 3c
       0.004555983 0.008124843

exp_avg f4 [1, 2]
000000 a6 a7 91 3b af 26 05 bd
       0.004445034 -0.032507595

exp_avg_sq f4 [1, 2]
000000 43 d3 18 3d c5 48 20 3c
       0.03731085 0.009782975

exp_avg f4 [1, 2]
000000 35 06 3c 3d 7f c4 c5 bc
       0.045904357 -0.024141548

exp_avg_sq f4 [1, 2]
000000 24 13 ce 3c 3f bf f4 3c
       0.025155611 0.02987635

exp_avg f4 [1, 2]
000000 81 f4 23 bc a6 1b c2 3c
       -0.010007025 0.023694824

exp_avg_sq f4 [1, 2]
000000 71 db a5 3c 1b 09 a2 3b
       0.02024624 0.004944933

exp_avg f4 [1, 2]
000000 ba ef 53 3d aa c0 23 bd
       0.051742293 -0.03997866

exp_avg_sq f4 [1, 2]
000000 95 0e f2 3d 2f e4 a0 3d
       0.118191876 0.078560226

exp_avg f4 [1, 2]
000000 e6 30 37 bc ba e4 a9 3c
       -0.011181092 0.020738948

exp_avg_sq f4 [1, 2]
000000 f2 0f b4 3c be 3e 64 3b
       0.02198026 0.0034827436

exp_avg f4 [1, 2]
000000 34 db 20 ba 00 44 86 bb
       -0.00061361794 -0.0040974617

exp_avg_sq f4 [1, 2]
000000 7f bc 95 3a 7f 27 5c 3b
       0.0011423974 0.0033592877

exp_avg f4 [1, 2]
000000 12 77 96 3c c7 bf 05 bd
       0.018367324 -0.032653596

exp_avg_sq f4 [1, 2]
000000 6f a7 80 3d 66 96 54 3c
       0.062819354 0.012975311
