models/model_d_U_3.pt (torch_old, 42908 bytes, 192 tensors)

model.0.w f4 [1, 2]
000000 26 dd c5 bf 2d fa ac 3c
       -1.5458114 0.021115387

model.0.u f4 [1, 2]
000000 e7 0c 10 3f ed e7 64 40
       0.5626969 3.5766556

model.1.w f4 [1, 2]
000000 c5 61 0d 40 5e a3 35 3e
       2.2090924 0.17738101

model.1.u f4 [1, 2]
000000 3a 79 0c 3f 52 ac b1 c0
       0.5487248 -5.552285

model.2.w f4 [1, 2]
000000 94 8b a4 3f 48 31 0f bf
       1.2855096 -0.5593457

model.2.u f4 [1, 2]
000000 20 e0 a4 3e 2e 99 e2 3f
       0.32202244 1.7702997

model.3.w f4 [1, 2]
000000 2c d6 70 bf 03 1a 8c 3f
       -0.940768 1.0945438

model.3.u f4 [1, 2]
000000 14 d1 1f c0 78 92 c6 bf
       -2.497136 -1.5513449

model.4.w f4 [1, 2]
000000 ad bb 0a c0 fc 8a 21 be
       -2.1677048 -0.15775675

model.4.u f4 [1, 2]
000000 9b 4a 4c bd 94 eb 0a 3f
       -0.049875837 0.54265714

model.5.w f4 [1, 2]
000000 13 cd 61 3f a6 87 14 bf
       0.88203543 -0.58019483

model.5.u f4 [1, 2]
000000 72 ae f8 be b1 46 11 bf
       -0.4857059 -0.5674849

model.6.w f4 [1, 2]
000000 c3 42 11 c0 4d a6 37 3e
       -2.2696998 0.17934532

model.6.u f4 [1, 2]
000000 88 2a 08 bd e9 8f 8c bd
       -0.033243686 -0.06863386

model.7.w f4 [1, 2]
000000 cc 4c 87 3f ae 7b ab 3e
       1.0570312 0.33492798

model.7.u f4 [1, 2]
000000 9d 45 7e 3e 85 5e b8 3f
       0.24831243 1.4403845

model.8.w f4 [1, 2]
000000 44 d0 2e 3e 88 1e 25 3e
       0.17071635 0.16124928

model.8.u f4 [1, 2]
000000 a0 fe 01 bf e9 c5 f8 bf
       -0.5077915 -1.9435397

model.9.w f4 [1, 2]
000000 41 ff 85 3f 46 df e3 3e
       1.0468522 0.44506282

model.9.u f4 [1, 2]
000000 3c 13 6a 3f 37 3d e3 3f
       0.914356 1.7753056

model.10.w f4 [1, 2]
000000 cd 0a eb bf b8 a9 0e bf
       -1.8362671 -0.5572772

model.10.u f4 [1, 2]
000000 ad d2 e3 be 1f ce b2 bf
       -0.4449667 -1.3969153

model.11.w f4 [1, 2]
000000 8d 0e ee bd 38 6b 84 bf
       -0.11623869 -1.034522

model.11.u f4 [1, 2]
000000 1f a4 59 3f 08 25 6a bf
       0.85016054 -0.91462755

model.12.w f4 [1, 2]
000000 16 9d 87 3f 09 66 54 3f
       1.0594814 0.82968193

model.12.u f4 [1, 2]
000000 9c 6c 50 3f 4c ec 36 3f
       0.81415725 0.7145431

model.13.w f4 [1, 2]
000000 aa 56 b1 3f 74 7f 05 3e
       1.3854573 0.13036901

model.13.u f4 [1, 2]
000000 9f c2 e7 3e f4 50 02 3f
       0.45265672 0.50904775

model.14.w f4 [1, 2]
000000 5a 85 96 bd 7b 37 b4 3e
       -0.073496535 0.35198578

model.14.u f4 [1, 2]
000000 fd 6f 1e bd 8a b3 02 c0
       -0.03868102 -2.0422082

model.15.w f4 [1, 2]
000000 4f 92 43 bf a9 e3 15 3e
       -0.76395124 0.14637627

model.15.u f4 [1, 2]
000000 44 55 a9 bd e5 d7 e1 3f
       -0.08268216 1.7644011

model.16.w f4 [1, 2]
000000 10 d7 b7 bf 96 78 e1 3e
       -1.4362507 0.44037312

model.16.u f4 [1, 2]
000000 10 b5 9f 3e 2b e1 e9 3f
       0.31192827 1.8271841

model.17.w f4 [1, 2]
000000 8e 1d 3e 3f 7d a7 0d bf
       0.74263847 -0.5533369

model.17.u f4 [1, 2]
000000 bd 9f 48 3f d5 de 65 bf
       0.7836874 -0.8979314

model.18.w f4 [1, 2]
000000 dd de 40 40 c0 f8 3f c0
       3.0136025 -2.9995575

model.18.u f4 [1, 2]
000000 72 cd 93 bf 32 28 93 bf
       -1.1547072 -1.1496642

model.19.w f4 [1, 2]
000000 04 10 f5 3e 17 bf 32 3f
       0.4786378 0.6982283

model.19.u f4 [1, 2]
000000 99 c1 ab bf 85 b6 31 3f
       -1.3418456 0.6941913

model.20.w f4 [1, 2]
000000 1e 89 4d be 83 d2 ce be
       -0.20071837 -0.40394983

model.20.u f4 [1, 2]
000000 74 89 06 3f e0 8a 07 bf
       0.52553487 -0.5294628

model.21.w f4 [1, 2]
000000 45 2f de 3f 7e 77 aa 3f
       1.7358176 1.3317716

model.21.u f4 [1, 2]
000000 5b 35 84 3f fe 0d ec be
       1.0328783 -0.46104425

model.22.w f4 [1, 2]
000000 f7 66 d7 40 8d 37 06 3f
       6.731319 0.52428514

model.22.u f4 [1, 2]
000000 d4 40 13 3d bd 26 f0 3e
       0.035950497 0.46904555

model.23.w f4 [1, 2]
000000 99 33 30 3f 01 af 91 bc
       0.6882873 -0.017783644

model.23.u f4 [1, 2]
000000 eb a6 8c bf 54 a8 81 bf
       -1.0988439 -1.0129495

model.24.w f4 [1, 2]
000000 08 65 ea 3e 1f a7 03 3e
       0.45780206 0.1285672

model.24.u f4 [1, 2]
000000 ce 2f 08 bf 7d 0e 2e bf
       -0.53197944 -0.6799086

model.25.w f4 [1, 2]
000000 a4 fe b3 3f 3c 30 8d 3f
       1.4062085 1.1030345

model.25.u f4 [1, 2]
000000 84 ab bf 3f 18 9f 1d 40
       1.4974217 2.4628353

model.26.w f4 [1, 2]
000000 dc 71 78 3e d6 fc 8b 3e
       0.24262184 0.27341336

model.26.u f4 [1, 2]
000000 0b e7 71 bf 2b 65 f5 3e
       -0.9449317 0.47928748

model.27.w f4 [1, 2]
000000 49 85 a5 3f 20 f5 bc be
       1.29313 -0.36905766

model.27.u f4 [1, 2]
000000 e6 4c a4 3f 74 7f 0f 40
       1.2835968 2.2421541

model.28.w f4 [1, 2]
000000 50 a5 30 bf da 5d 26 3f
       -0.69002247 0.64986956

model.28.u f4 [1, 2]
000000 3b 0b 9d bf 55 af 18 bf
       -1.2269052 -0.59642535

model.29.w f4 [1, 2]
000000 6d 9a cc 3f 7c 17 07 3f
       1.5984627 0.5277021

model.29.u f4 [1, 2]
000000 fa 83 29 bf b7 5d 44 3f
       -0.66217005 0.767055

model.30.w f4 [1, 2]
000000 fb e2 5a 3f bd 38 19 be
       0.85502595 -0.1496305

model.30.u f4 [1, 2]
000000 91 b4 24 bf a5 dc b3 3f
       -0.6433802 1.405171

model.31.w f4 [1, 2]
000000 e6 58 71 40 c5 85 2c 40
       3.771051 2.6956646

model.31.u f4 [1, 2]
000000 62 be cf 3e 0e 91 7d 3e
       0.40574938 0.24762365

exp_avg f4 [1, 2]
000000 ae 76 4d 3d c7 42 2b 3f
       0.05016201 0.6689877

exp_avg_sq f4 [1, 2]
000000 ae e4 a4 3e 61 34 e6 41
       0.3220572 28.775576

exp_avg f4 [1, 2]
000000 67 bb e0 bd ae 9c f1 bc
       -0.10973244 -0.029493656

exp_avg_sq f4 [1, 2]
000000 70 4a 64 40 71 64 8d 3c
       3.5670433 0.017259808

exp_avg f4 [1, 2]
000000 00 cc 6f 3c 92 0d fb 3e
       0.01463604 0.4903379

exp_avg_sq f4 [1, 2]
000000 37 79 f0 3c d7 33 b6 41
       0.029354675 22.775312

exp_avg f4 [1, 2]
000000 d6 ea b8 3d c0 c5 99 3b
       0.090291664 0.004692763

exp_avg_sq f4 [1, 2]
000000 88 9c 07 3e 00 1e 9b 3d
       0.13243306 0.075740814

exp_avg f4 [1, 2]
000000 69 f3 b4 bb 21 fc 27 bd
       -0.005522181 -0.041011933

exp_avg_sq f4 [1, 2]
000000 11 e1 08 3e 1d 0f cb 3f
       0.13367106 1.5863987

exp_avg f4 [1, 2]
000000 94 02 5a 3e 36 8a 82 3c
       0.21290046 0.015935045

exp_avg_sq f4 [1, 2]
000000 2d d0 b3 3f 76 ca 1c 3f
       1.4047905 0.6124643

exp_avg f4 [1, 2]
000000 c7 e9 88 bd fe 7e 33 bd
       -0.066852145 -0.04382228

exp_avg_sq f4 [1, 2]
000000 66 02 a6 3e 15 25 79 3e
       0.32423705 0.24330552

exp_avg f4 [1, 2]
000000 94 fd e1 bd 2e d2 8d bd
       -0.11034694 -0.06924854

exp_avg_sq f4 [1, 2]
000000 83 ea c6 3e c4 d1 0f 3e
       0.38850793 0.14044863

exp_avg f4 [1, 2]
000000 c8 e0 8a 3b e8 d6 20 3b
       0.004238222 0.0024542157

exp_avg_sq f4 [1, 2]
000000 ae d4 03 3b 46 b7 6e 3a
       0.002011578 0.00091062894

exp_avg f4 [1, 2]
000000 34 df 79 bd 7e ab 91 bd
       -0.06100388 -0.07112788

exp_avg_sq f4 [1, 2]
000000 e4 93 8c 3f d5 5c 0c 3f
       1.0982633 0.5482915

exp_avg f4 [1, 2]
000000 72 f3 1f bd 10 db 6f bc
       -0.039050527 -0.014639631

exp_avg_sq f4 [1, 2]
000000 10 f7 01 3d d4 a1 4e 3b
       0.031729758 0.0031529563

exp_avg f4 [1, 2]
000000 bc 19 08 3d 44 2a f0 3c
       0.033227667 0.029317029

exp_avg_sq f4 [1, 2]
000000 df e6 91 3f d2 65 db 3e
       1.1398581 0.4285112

exp_avg f4 [1, 2]
000000 8e 9c d7 ba 1c 98 a6 bb
       -0.0016449855 -0.005084051

exp_avg_sq f4 [1, 2]
000000 d7 94 56 38 cf b5 70 3a
       5.1160194e-05 0.0009182365

exp_avg f4 [1, 2]
000000 44 07 51 be c5 00 de bd
       -0.20412928 -0.108399905

exp_avg_sq f4 [1, 2]
000000 8f 42 1c 3f 73 46 9a 3e
       0.6103906 0.30131873

exp_avg f4 [1, 2]
000000 5b ca f2 3c 9b 8e bc 3d
       0.029637506 0.09206887

exp_avg_sq f4 [1, 2]
000000 52 c6 35 3d 15 20 23 3e
       0.044378586 0.15930207

exp_avg f4 [1, 2]
000000 8f fb 17 3e ce ec cd 3d
       0.14842056 0.100549325

exp_avg_sq f4 [1, 2]
000000 2e f3 c0 3e 0f ea 37 3e
       0.3768553 0.1796038

exp_avg f4 [1, 2]
000000 64 50 8a bf 44 3f e0 bd
       -1.0805783 -0.10949567

exp_avg_sq f4 [1, 2]
000000 d7 4f 43 41 fb 94 cd 40
       12.206992 6.424436

exp_avg f4 [1, 2]
000000 39 7a c7 3d d8 54 c7 3d
       0.09740109 0.097329795

exp_avg_sq f4 [1, 2]
000000 15 81 e1 3d 71 d8 af 3d
       0.110109486 0.08586205

exp_avg f4 [1, 2]
000000 6e 57 bb 3c 62 f7 a5 3d
       0.022868838 0.08103825

exp_avg_sq f4 [1, 2]
000000 b3 24 86 3d 90 3c 7f 3d
       0.065499686 0.062313616

exp_avg f4 [1, 2]
000000 a4 64 39 3e 21 73 27 3e
       0.18104798 0.16352512

exp_avg_sq f4 [1, 2]
000000 df db 15 3f c7 7f b8 3e
       0.5853862 0.36034986

exp_avg f4 [1, 2]
000000 22 4d 22 ba fa 22 71 bb
       -0.0006191303 -0.003679453

exp_avg_sq f4 [1, 2]
000000 50 9b a2 39 bf 91 ce 3b
       0.00031014765 0.0063039954

exp_avg f4 [1, 2]
000000 5e e4 5f be 47 7e 28 be
       -0.21864459 -0.16454421

exp_avg_sq f4 [1, 2]
000000 92 fd 81 3f 32 61 ff 3e
       1.0155509 0.49878842

exp_avg f4 [1, 2]
000000 26 8f ba 3d 9a 5a 16 3d
       0.09109335 0.036707498

exp_avg_sq f4 [1, 2]
000000 29 8a d4 3d ce b9 19 3d
       0.103779145 0.037530713

exp_avg f4 [1, 2]
000000 2a be 69 be 44 e8 2d be
       -0.22826448 -0.16983134

exp_avg_sq f4 [1, 2]
000000 62 49 ab 3f 78 ff fe 3e
       1.338177 0.49804282

exp_avg f4 [1, 2]
000000 52 96 d2 bb 45 2a cf 3c
       -0.006426611 0.02528871

exp_avg_sq f4 [1, 2]
000000 08 a2 60 3b 09 49 52 3c
       0.0034276266 0.012834796

exp_avg f4 [1, 2]
000000 7f d6 80 3e 0b 2d 43 3e
       0.25163648 0.19060151

exp_avg_sq f4 [1, 2]
000000 45 dc b7 3f 5c 74 0d 3f
       1.4364096 0.55255675

exp_avg f4 [1, 2]
000000 2a 42 c0 3b e8 a0 28 3d
       0.0058672624 0.041169077

exp_avg_sq f4 [1, 2]
000000 fa c8 80 3b f0 f8 8d 3e
       0.0039302083 0.27728987

exp_avg f4 [1, 2]
000000 b4 fc 4e 3e fc e5 3f 3e
       0.20213586 0.18740076

exp_avg_sq f4 [1, 2]
000000 75 a1 2f 3f e1 e3 ea 3e
       0.6860574 0.45876983

exp_avg f4 [1, 2]
000000 da d2 00 c0 0a ed 3f bf
       -2.0128694 -0.7497107

exp_avg_sq f4 [1, 2]
000000 44 4a e9 41 ee 57 ae 40
       29.161263 5.4482336

exp_avg f4 [1, 2]
000000 52 10 10 3e ce ad 23 3e
       0.14068726 0.1598427

exp_avg_sq f4 [1, 2]
000000 62 fc 37 3f a8 35 14 3f
       0.7186948 0.5789437

exp_avg f4 [1, 2]
000000 66 7f 1d bd 2e 53 16 bd
       -0.038451575 -0.03670042

exp_avg_sq f4 [1, 2]
000000 84 b0 17 3f 4e 1f 8d 3f
       0.59253716 1.1025178

exp_avg f4 [1, 2]
000000 d8 b2 21 be 23 f7 a9 be
       -0.1579088 -0.33196363

exp_avg_sq f4 [1, 2]
000000 8a 60 24 3f 54 f9 4b 3f
       0.64209807 0.7967732

exp_avg f4 [1, 2]
000000 c8 b2 f6 b9 f6 76 2b 3c
       -0.0004705398 0.010465374

exp_avg_sq f4 [1, 2]
000000 51 98 f4 3c ec 99 6c 3d
       0.029857786 0.05776398

exp_avg f4 [1, 2]
000000 94 5a 2b be 7d dd a0 be
       -0.16733772 -0.31418982

exp_avg_sq f4 [1, 2]
000000 31 f7 03 3f e9 02 4f 3f
       0.5154906 0.80863816

exp_avg f4 [1, 2]
000000 5e 36 91 bd d4 35 8a 3b
       -0.07090448 0.0042178426

exp_avg_sq f4 [1, 2]
000000 65 67 9e 3d 25 3a 91 3b
       0.07734565 0.00443198

exp_avg f4 [1, 2]
000000 5a e5 06 3e 9e ff 74 3e
       0.13173428 0.23925635

exp_avg_sq f4 [1, 2]
000000 38 86 f3 3e ef b7 2c 3f
       0.47563338 0.6746816

exp_avg f4 [1, 2]
000000 88 c4 10 bc 28 72 09 bc
       -0.008835919 -0.008389033

exp_avg_sq f4 [1, 2]
000000 eb 3a 06 3b 33 ca 21 3b
       0.0020481895 0.002468717

exp_avg f4 [1, 2]
000000 ec db 52 3e bb a5 87 3e
       0.20591706 0.2649363

exp_avg_sq f4 [1, 2]
000000 20 40 04 3f ac 13 3a 3f
       0.51660347 0.72686267

exp_avg f4 [1, 2]
000000 7a 72 7f 3c 90 2d 4a 3c
       0.015591258 0.0123399645

exp_avg_sq f4 [1, 2]
000000 bc 68 c7 40 f0 cd 6d 40
       6.231535 3.7156944

exp_avg f4 [1, 2]
000000 10 ac 8a bd b9 13 87 bd
       -0.067710996 -0.06595559

exp_avg_sq f4 [1, 2]
000000 b8 4c 07 3e 71 d9 00 3e
       0.1321286 0.12582947

exp_avg f4 [1, 2]
000000 58 5c 7d be 25 35 2b 3e
       -0.24742258 0.16719492

exp_avg_sq f4 [1, 2]
000000 d1 08 07 3f 0b 81 a3 3e
       0.5274783 0.3193439

exp_avg f4 [1, 2]
000000 c8 fe a8 3d 11 d0 e4 3d
       0.08251721 0.11172498

exp_avg_sq f4 [1, 2]
000000 a6 ff 39 3e 2c 80 44 3e
       0.18163928 0.19189519

exp_avg f4 [1, 2]
000000 00 4a f8 3a 80 fc 90 ba
       0.0018942952 -0.0011061579

exp_avg_sq f4 [1, 2]
000000 72 01 84 3c 6b 26 f3 3c
       0.01611397 0.029681405

exp_avg f4 [1, 2]
000000 b6 e1 ea 3d 74 77 86 3e
       0.11468832 0.2626301

exp_avg_sq f4 [1, 2]
000000 09 c6 58 3f af 17 7a 3f
       0.8467718 0.9769239

exp_avg f4 [1, 2]
000000 ab 77 a3 38 80 c9 c3 3a
       7.7947356e-05 0.0014937371

exp_avg_sq f4 [1, 2]
000000 fd ee e7 36 17 f6 2c 3a
       6.9121584e-06 0.00065979495

exp_avg f4 [1, 2]
000000 88 f1 3f 3e c9 6d 8c 3e
       0.1874448 0.2742751

exp_avg_sq f4 [1, 2]
000000 39 56 61 3f fb 9f 82 3f
       0.8802219 1.0205072

exp_avg f4 [1, 2]
000000 bc f0 0c 3d a6 a4 35 bd
       0.03440927 -0.044346474

exp_avg_sq f4 [1, 2]
000000 6e f9 7a 3d 2e 35 16 3e
       0.06127303 0.14668724

exp_avg f4 [1, 2]
000000 6e 4e 33 3e 10 ec 8d 3e
       0.17510387 0.27719164

exp_avg_sq f4 [1, 2]
000000 d1 3c 66 3f b1 b8 80 3f
       0.8993655 1.0056363

exp_avg f4 [1, 2]
000000 63 7c f7 bd 85 73 63 3e
       -0.12084272 0.22212036

exp_avg_sq f4 [1, 2]
000000 b1 6c 86 3f 68 b4 ab 3f
       1.050192 1.3414431

exp_avg f4 [1, 2]
000000 7e 64 bf 3d 3a 8d 66 3e
       0.09345339 0.22514811

exp_avg_sq f4 [1, 2]
000000 fb d0 61 3f d9 b0 56 3f
       0.88209504 0.838636

exp_avg f4 [1, 2]
000000 50 c3 19 3f b4 d8 44 bf
       0.6006365 -0.7689316

exp_avg_sq f4 [1, 2]
000000 f0 8c f6 40 6b 05 42 41
       7.7047043 12.126323

exp_avg f4 [1, 2]
000000 03 36 83 bd 5e bd dd 3c
       -0.06406786 0.027067836

exp_avg_sq f4 [1, 2]
000000 f4 6e 97 3d ee fd 32 3d
       0.073942095 0.043699197

exp_avg f4 [1, 2]
000000 40 c7 d2 3e c1 e7 8e be
       0.4116764 -0.2791119

exp_avg_sq f4 [1, 2]
000000 75 11 df 3f c9 43 b2 3f
       1.7427202 1.3926936

exp_avg f4 [1, 2]
000000 f2 3b 58 bd 06 b8 04 bc
       -0.052791543 -0.008100515

exp_avg_sq f4 [1, 2]
000000 80 0e a5 3d ec a3 02 3d
       0.08059406 0.03189461

exp_avg f4 [1, 2]
000000 64 09 f4 bc 2e d5 9d bd
       -0.029789634 -0.077066764

exp_avg_sq f4 [1, 2]
000000 b9 cf 7a 3c 6a f9 2a 3e
       0.015308314 0.16696706

exp_avg f4 [1, 2]
000000 bd 63 30 bd 88 14 be 3d
       -0.043063868 0.0928126

exp_avg_sq f4 [1, 2]
000000 56 0e e0 3d 4a 00 d7 3d
       0.10940234 0.10498102

exp_avg f4 [1, 2]
000000 40 94 69 3b fa c6 87 3c
       0.0035641342 0.016574372

exp_avg_sq f4 [1, 2]
000000 c4 f6 b6 3c 0b b4 f2 3c
       0.022334464 0.029626867

exp_avg f4 [1, 2]
000000 fb 35 ed 3c ee 0d d8 bd
       0.028956404 -0.10549532

exp_avg_sq f4 [1, 2]
000000 e4 d3 c6 3d 7e 6d dd 3d
       0.09708384 0.108118996

exp_avg f4 [1, 2]
000000 34 1a 5f bc ad e9 4a 3c
       -0.013617087 0.012384814

exp_avg_sq f4 [1, 2]
000000 89 3c 93 3c 1d 74 ce 3c
       0.017973201 0.025201852

exp_avg f4 [1, 2]
000000 7a 08 d6 bc 00 14 dd 3d
       -0.026127089 0.1079483

exp_avg_sq f4 [1, 2]
000000 f2 df d0 3d d2 31 de 3d
       0.10198964 0.10849346

exp_avg f4 [1, 2]
000000 b6 75 f1 bb db d4 59 3c
       -0.0073687686 0.013295378

exp_avg_sq f4 [1, 2]
000000 32 6c fb 3a d1 aa dd 3b
       0.0019182025 0.0067647477

exp_avg f4 [1, 2]
000000 05 91 d0 bc 3e b8 cd 3d
       -0.025459776 0.10044907

exp_avg_sq f4 [1, 2]
000000 95 a5 dc 3d fd bc dc 3d
       0.1077377 0.10778234

exp_avg f4 [1, 2]
000000 f3 f6 c3 3a ee e9 0e ba
       0.0014950916 -0.00054517284

exp_avg_sq f4 [1, 2]
000000 ae 60 da 39 af 01 7e 39
       0.00041652232 0.00024223955

exp_avg f4 [1, 2]
000000 f1 75 1a bd eb 75 e9 3d
       -0.037710134 0.11399444

exp_avg_sq f4 [1, 2]
000000 c1 8a c9 3d 9d 7d df 3d
       0.09840918 0.10912631
