models/model_ring.pt (torch_old, 2879 bytes, 12 tensors)

model.0.w f4 [1, 2]
0	0xc0b0f6f4	-5.5301456
1	0x4095fb64	4.6869373

model.0.u f4 [1, 2]
0	0xbfc1b61e	-1.5133703
1	0x3dde041d	0.10840628

model.1.w f4 [1, 2]
0	0x3f56f4fa	0.83967555
1	0xc114aeca	-9.292673

model.1.u f4 [1, 2]
0	0x3ca8395a	0.02053516
1	0xc0213977	-2.5191324

exp_avg f4 [1, 2]
0	0x3d1e2f8e	0.03861957
1	0x3b7004d9	0.0036623983

exp_avg_sq f4 [1, 2]
0	0x3c3857d8	0.011251412
1	0x3bcd0b18	0.006257426

exp_avg f4 [1, 2]
0	0xbd7f57ca	-0.06233958
1	0x3e33eeed	0.17571612

exp_avg_sq f4 [1, 2]
0	0x3dd7fd38	0.105463445
1	0x3fd88363	1.6915096

exp_avg f4 [1, 2]
0	0x3c28903c	0.010288294
1	0x3cf6c47b	0.030122986

exp_avg_sq f4 [1, 2]
0	0x3db6d429	0.08927185
1	0x3b008206	0.001960875

exp_avg f4 [1, 2]
0	0x3d7d4714	0.061835364
1	0xbcb31384	-0.021859892

exp_avg_sq f4 [1, 2]
0	0x3d90c5a0	0.07068944
1	0x3dc4a5d5	0.096019424
