models/model_U_4.pt (torch_old, 42908 bytes, 192 tensors)

model.0.w f4 [1, 2]
000000 93 d1 95 bf a0 6f c3 3e
       -1.1704582 0.381711

model.0.u f4 [1, 2]
000000 09 84 8d bd ba ca e3 bf
       -0.06909949 -1.7796242

model.1.w f4 [1, 2]
000000 98 2e 14 3f f9 08 71 3e
       0.57883596 0.23538579

model.1.u f4 [1, 2]
000000 6d 1f 53 be 3a b2 0f c0
       -0.20617457 -2.245253

model.2.w f4 [1, 2]
000000 04 d5 2d 3f 12 65 91 bf
       0.6790316 -1.1358969

model.2.u f4 [1, 2]
000000 b1 c0 a6 3f 54 1e 78 3f
       1.3027555 0.9692128

model.3.w f4 [1, 2]
000000 6e af 4e 3f 42 42 57 bf
       0.80736434 -0.84085476

model.3.u f4 [1, 2]
000000 17 dc d4 3e 67 f2 33 3f
       0.41574165 0.7029175

model.4.w f4 [1, 2]
000000 2a e6 e8 3e 0e 80 35 be
       0.454881 -0.1772463

model.4.u f4 [1, 2]
000000 a0 c3 0f 3f 45 08 17 bf
       0.56157875 -0.58996993

model.5.w f4 [1, 2]
000000 ac bb c7 3e 5a cc 21 3f
       0.3901037 0.6320244

model.5.u f4 [1, 2]
000000 dc f0 56 be 86 a8 78 bf
       -0.20990318 -0.97132146

model.6.w f4 [1, 2]
000000 06 71 59 bf c7 a9 54 3f
       -0.84938085 0.8307156

model.6.u f4 [1, 2]
000000 16 dc 56 3f 56 cb c8 3e
       0.83929574 0.39217633

model.7.w f4 [1, 2]
000000 ff 84 d3 bf e9 ce f0 bf
       -1.6524962 -1.8813144

model.7.u f4 [1, 2]
000000 f2 63 81 3f d8 ef 4d bf
       1.0108626 -0.804441

model.8.w f4 [1, 2]
000000 54 bb 97 bf 92 bf 84 3f
       -1.1854043 1.0370963

model.8.u f4 [1, 2]
000000 fd 24 55 3e ae 4c 15 bf
       0.20814891 -0.5832013

model.9.w f4 [1, 2]
000000 94 57 9e 3f 91 96 47 bf
       1.2370477 -0.7796412

model.9.u f4 [1, 2]
000000 dd a5 1c 40 1f 46 b5 bf
       2.4476235 -1.4162024

model.10.w f4 [1, 2]
000000 0d d6 d3 bf 95 f9 0b 3f
       -1.6549698 0.54677707

model.10.u f4 [1, 2]
000000 f2 0a 01 3f 6a eb 26 3f
       0.50407326 0.65202963

model.11.w f4 [1, 2]
000000 e3 fb 87 3e 25 9d 56 bf
       0.26559362 -0.83833534

model.11.u f4 [1, 2]
000000 13 09 de 3e 04 24 07 3f
       0.43366298 0.5278933

model.12.w f4 [1, 2]
000000 ad f0 99 bf 40 6b d3 be
       -1.2026573 -0.41292763

model.12.u f4 [1, 2]
000000 a2 36 b2 bf c7 b9 4e bf
       -1.3922923 -0.80752224

model.13.w f4 [1, 2]
000000 03 69 15 bf f5 fc 1a 3e
       -0.5836336 0.15135558

model.13.u f4 [1, 2]
000000 20 41 50 be 47 ae ca be
       -0.20337343 -0.39586088

model.14.w f4 [1, 2]
000000 9c 2b 9b 3f 5a ef 6a be
       1.2122684 -0.22942868

model.14.u f4 [1, 2]
000000 d1 73 e6 3e 2f 8e 47 bf
       0.45010236 -0.7795133

model.15.w f4 [1, 2]
000000 b3 39 88 3f 3e 5f 7b 3f
       1.0642608 0.98192203

model.15.u f4 [1, 2]
000000 06 48 28 3e 69 69 5d bf
       0.16433725 -0.8648897

model.16.w f4 [1, 2]
000000 96 b6 0c bf 2f fc 5d bf
       -0.54966104 -0.86712927

model.16.u f4 [1, 2]
000000 e8 06 99 3e 05 27 58 bf
       0.29888082 -0.8443454

model.17.w f4 [1, 2]
000000 ee 03 b7 3d b2 0c 51 3e
       0.089362964 0.20414999

model.17.u f4 [1, 2]
000000 86 a4 32 bf 40 36 2f 3d
       -0.6978229 0.042776346

model.18.w f4 [1, 2]
000000 d5 16 37 3f bf 99 03 3f
       0.71519214 0.5140647

model.18.u f4 [1, 2]
000000 35 d9 a7 3e b9 e7 8a 3e
       0.32782903 0.27129915

model.19.w f4 [1, 2]
000000 0d dc 93 3e c3 9a 8f bf
       0.28878823 -1.1219105

model.19.u f4 [1, 2]
000000 8f 46 5a 3f 06 e8 da 3e
       0.85263914 0.42755145

model.20.w f4 [1, 2]
000000 42 22 6e 3f b3 11 09 bf
       0.93021023 -0.5354263

model.20.u f4 [1, 2]
000000 53 36 bf be 68 b1 97 be
       -0.37346134 -0.29627538

model.21.w f4 [1, 2]
000000 e7 dc 39 bf 38 78 13 bf
       -0.72602695 -0.57605314

model.21.u f4 [1, 2]
000000 81 26 29 bf 49 d0 4d bf
       -0.6607438 -0.8039594

model.22.w f4 [1, 2]
000000 6b 1a a3 3f ee 43 9b be
       1.2742437 -0.30325264

model.22.u f4 [1, 2]
000000 31 c3 ce bd c7 c3 30 3f
       -0.100958236 0.6904873

model.23.w f4 [1, 2]
000000 2a f9 1c 3e ad b4 88 bf
       0.15329424 -1.0680138

model.23.u f4 [1, 2]
000000 8d ca 82 bf bd 18 88 3e
       -1.0218064 0.26581374

model.24.w f4 [1, 2]
000000 d3 8f 52 bf e7 12 cd 3d
       -0.8225071 0.10013371

model.24.u f4 [1, 2]
000000 2a 8d 03 3d ad d1 22 3f
       0.032117046 0.6360119

model.25.w f4 [1, 2]
000000 bd 22 07 3d 4b d3 8f be
       0.032992113 -0.2809089

model.25.u f4 [1, 2]
000000 fa ff 2a be 80 5e f9 3e
       -0.1669921 0.4870491

model.26.w f4 [1, 2]
000000 1d 10 db 3d d1 4d d2 3f
       0.10696433 1.6429998

model.26.u f4 [1, 2]
000000 a9 07 1e bf 54 e2 3d 3f
       -0.6173044 0.74173474

model.27.w f4 [1, 2]
000000 65 cb 52 3f 80 6f 54 3f
       0.82341605 0.82982635

model.27.u f4 [1, 2]
000000 15 48 60 3e 43 2d c7 3e
       0.21902497 0.3890172

model.28.w f4 [1, 2]
000000 0d 2b 22 3f e5 92 31 3f
       0.6334694 0.6936477

model.28.u f4 [1, 2]
000000 48 d5 0f bf c2 dc 59 3f
       -0.56184816 0.85102475

model.29.w f4 [1, 2]
000000 1d be 57 bf 35 f9 9b 3f
       -0.84274465 1.2185427

model.29.u f4 [1, 2]
000000 d0 6c ec 3e a5 85 84 3f
       0.46176767 1.0353285

model.30.w f4 [1, 2]
000000 d3 46 12 bf a5 fa 09 3f
       -0.5713932 0.5389808

model.30.u f4 [1, 2]
000000 eb 51 77 be 5b fe ac 3f
       -0.24152343 1.3515123

model.31.w f4 [1, 2]
000000 d9 a8 1b bf 22 6a 43 3e
       -0.60804516 0.19083455

model.31.u f4 [1, 2]
000000 88 0b 9c bf d4 0d 84 3f
       -1.2191019 1.031672

exp_avg f4 [1, 2]
000000 e0 55 0e bb 0f 29 1b 3d
       -0.0021718666 0.037880953

exp_avg_sq f4 [1, 2]
000000 de 33 b3 3d 77 c2 99 3e
       0.08750127 0.30031177

exp_avg f4 [1, 2]
000000 92 2b ad bc 82 84 15 3d
       -0.02113894 0.036503322

exp_avg_sq f4 [1, 2]
000000 90 39 12 3e 4c 00 a2 3d
       0.14279771 0.07910213

exp_avg f4 [1, 2]
000000 a2 e4 f2 bd 1e c9 a0 3d
       -0.118600145 0.0785086

exp_avg_sq f4 [1, 2]
000000 00 24 bf 3e 5f 17 03 3f
       0.37332153 0.51207536

exp_avg f4 [1, 2]
000000 1f d6 85 3d ad 1d 58 bd
       0.06534981 -0.052762676

exp_avg_sq f4 [1, 2]
000000 dc 89 d8 3d b3 8d e9 3d
       0.105731696 0.1140398

exp_avg f4 [1, 2]
000000 ce 38 81 3b 34 74 12 3d
       0.003943539 0.03575535

exp_avg_sq f4 [1, 2]
000000 ac 29 b3 3d 06 05 7d 3d
       0.08748183 0.06177237

exp_avg f4 [1, 2]
000000 2a d9 c7 bc 9b 3c 14 3d
       -0.024395544 0.03619061

exp_avg_sq f4 [1, 2]
000000 c9 e3 3c 3d 2b 50 6f 3e
       0.04611567 0.23370425

exp_avg f4 [1, 2]
000000 6c 07 21 bd 78 ba a9 bb
       -0.03931372 -0.0051796995

exp_avg_sq f4 [1, 2]
000000 f1 6d 99 3e 8f ad 03 3e
       0.2996669 0.12859176

exp_avg f4 [1, 2]
000000 cd 89 c0 3c 65 83 e5 bc
       0.023503209 -0.028016755

exp_avg_sq f4 [1, 2]
000000 44 30 88 3d cc 39 ac 3e
       0.06649831 0.33637846

exp_avg f4 [1, 2]
000000 70 c3 84 3b 20 25 13 bc
       0.0040516183 -0.008981019

exp_avg_sq f4 [1, 2]
000000 a7 dd 50 3f 8a 0f d2 3e
       0.81588215 0.4102748

exp_avg f4 [1, 2]
000000 f1 c8 ce 3c 92 25 25 bd
       0.0252423 -0.040319033

exp_avg_sq f4 [1, 2]
000000 0d 88 cf 3c eb 34 0d 3e
       0.025333429 0.13789718

exp_avg f4 [1, 2]
000000 c8 87 90 3e 35 4a 48 bd
       0.28228593 -0.048898894

exp_avg_sq f4 [1, 2]
000000 b6 77 7f 3f e1 2b c8 3d
       0.9979204 0.09773994

exp_avg f4 [1, 2]
000000 d2 2f 86 3c f4 1d ef 3d
       0.016380224 0.11675635

exp_avg_sq f4 [1, 2]
000000 ed c1 47 3d 91 42 99 3f
       0.048768926 1.197344

exp_avg f4 [1, 2]
000000 89 4b eb bd 40 bc a1 bc
       -0.114890166 -0.019743085

exp_avg_sq f4 [1, 2]
000000 7f 12 bf 3d 63 db b9 3b
       0.093297 0.005671905

exp_avg f4 [1, 2]
000000 20 1a 02 3e 16 83 21 3e
       0.12705278 0.15772662

exp_avg_sq f4 [1, 2]
000000 c1 fe ec 3d 1e 2e 3a 3f
       0.11572028 0.7272662

exp_avg f4 [1, 2]
000000 db e7 6e bc 2a 9f b2 3b
       -0.014581646 0.0054511027

exp_avg_sq f4 [1, 2]
000000 2b e5 a4 3d c3 61 85 3c
       0.08051523 0.016281968

exp_avg f4 [1, 2]
000000 5a 05 7e 3d dd fb 3d 3c
       0.062016822 0.011595693

exp_avg_sq f4 [1, 2]
000000 26 a6 2d 3e 3a d4 6e 3e
       0.16957912 0.23323146

exp_avg f4 [1, 2]
000000 29 a1 d4 bd d8 2e ec bd
       -0.10382301 -0.11532372

exp_avg_sq f4 [1, 2]
000000 00 75 01 3f 2d 07 1f 3f
       0.5056915 0.62120324

exp_avg f4 [1, 2]
000000 3f eb 1d bd 24 60 32 3d
       -0.038554426 0.043548718

exp_avg_sq f4 [1, 2]
000000 94 40 db 3e 13 84 d2 3e
       0.42822707 0.4111639

exp_avg f4 [1, 2]
000000 0a ce f8 bd 38 5e c3 bd
       -0.12148674 -0.09539455

exp_avg_sq f4 [1, 2]
000000 bd f5 f6 3e 7f 57 05 3f
       0.48234358 0.52086633

exp_avg f4 [1, 2]
000000 2b 7e 33 3c 19 27 29 bd
       0.010955374 -0.041297052

exp_avg_sq f4 [1, 2]
000000 a9 d6 96 3c a1 f0 7d 3d
       0.018412905 0.06199706

exp_avg f4 [1, 2]
000000 b4 ef f4 3b 3a 2e 15 3d
       0.007474864 0.03642104

exp_avg_sq f4 [1, 2]
000000 83 b0 05 3e fb 36 08 3e
       0.13055615 0.13302223

exp_avg f4 [1, 2]
000000 8a dc 01 3d eb 97 27 3e
       0.031704463 0.16366546

exp_avg_sq f4 [1, 2]
000000 80 ef 60 3e b0 11 c4 3e
       0.21966362 0.38294744

exp_avg f4 [1, 2]
000000 26 e2 3e 3c b6 1f c7 3d
       0.011650598 0.09722845

exp_avg_sq f4 [1, 2]
000000 5e 18 1d 3e 63 88 0b 3e
       0.15341327 0.13626246

exp_avg f4 [1, 2]
000000 4e f6 df bc 22 18 83 be
       -0.027339127 -0.2560435

exp_avg_sq f4 [1, 2]
000000 be f6 a7 3e 20 db 12 3f
       0.32805437 0.5736561

exp_avg f4 [1, 2]
000000 20 0e bb 3c d0 ba 2e bd
       0.022833884 -0.042658627

exp_avg_sq f4 [1, 2]
000000 f8 e2 86 3d b0 fd 41 3d
       0.065862596 0.047361076

exp_avg f4 [1, 2]
000000 7a 9e 1d bd 5e 72 c5 3d
       -0.038481213 0.096409544

exp_avg_sq f4 [1, 2]
000000 8b 99 cd 3c 7d ee 8c 3e
       0.025097629 0.27525702

exp_avg f4 [1, 2]
000000 2b f9 04 3d 0c a6 59 bc
       0.032464188 -0.013284218

exp_avg_sq f4 [1, 2]
000000 aa de 36 3d f6 c0 20 3c
       0.044645943 0.0098116305

exp_avg f4 [1, 2]
000000 17 a7 5d bd 0b d5 f6 3d
       -0.054114427 0.120523535

exp_avg_sq f4 [1, 2]
000000 f0 da 19 3d b7 94 b2 3e
       0.03756231 0.34879085

exp_avg f4 [1, 2]
000000 fb 7d d0 bb 4a 8f 83 bc
       -0.0063626743 -0.016059536

exp_avg_sq f4 [1, 2]
000000 aa ea 13 3d d1 e4 83 3c
       0.036112465 0.01610032

exp_avg f4 [1, 2]
000000 e7 74 8e 3d 97 a5 38 be
       0.06955891 -0.18031918

exp_avg_sq f4 [1, 2]
000000 84 e8 36 3d 6e 9b 18 3f
       0.044655338 0.59612167

exp_avg f4 [1, 2]
000000 3f db f0 3d 28 3f 57 bd
       0.11760568 -0.052550465

exp_avg_sq f4 [1, 2]
000000 b2 95 ca 3e 3f ad 8e 3e
       0.39567333 0.2786655

exp_avg f4 [1, 2]
000000 3f b7 19 3c 5a 4a 3a be
       0.009382068 -0.18192425

exp_avg_sq f4 [1, 2]
000000 0b e7 a2 3e 1c de 92 3f
       0.31816897 1.1474032

exp_avg f4 [1, 2]
000000 c3 d0 89 3e dc 32 43 be
       0.26917085 -0.1906237

exp_avg_sq f4 [1, 2]
000000 0d cf 73 3f 62 8b ba 3e
       0.9523781 0.36434466

exp_avg f4 [1, 2]
000000 2b 1e b6 bc cf 35 bb bc
       -0.022231182 -0.022852806

exp_avg_sq f4 [1, 2]
000000 2b cf 17 3d 96 81 c5 3d
       0.037062805 0.09643857

exp_avg f4 [1, 2]
000000 89 14 0f be 24 74 54 3d
       -0.13972677 0.051868573

exp_avg_sq f4 [1, 2]
000000 6c 73 e4 3e 68 87 29 3e
       0.4461931 0.1655556

exp_avg f4 [1, 2]
000000 f0 62 01 3c 42 48 5a 3b
       0.007897124 0.003330723

exp_avg_sq f4 [1, 2]
000000 d8 fa 01 3c 31 3f 6d 3c
       0.007933341 0.014480398

exp_avg f4 [1, 2]
000000 7a 65 92 bc 50 41 ef 3c
       -0.017870653 0.029205948

exp_avg_sq f4 [1, 2]
000000 f0 0f ca 3d fc 4c ae 3d
       0.09866321 0.08510777

exp_avg f4 [1, 2]
000000 de a1 8d 3d c9 8c 87 bd
       0.06915639 -0.066186495

exp_avg_sq f4 [1, 2]
000000 1e c1 81 3d 3d f9 58 3e
       0.06335662 0.21188827

exp_avg f4 [1, 2]
000000 6a 8c 91 bc 15 9c ef 3c
       -0.01776715 0.02924923

exp_avg_sq f4 [1, 2]
000000 a4 e5 52 3e c6 43 7b 3d
       0.20595413 0.06134393

exp_avg f4 [1, 2]
000000 b4 4f 56 3d 08 5f 30 be
       0.052322105 -0.17223752

exp_avg_sq f4 [1, 2]
000000 06 2f 04 3e c7 e6 8a 3f
       0.12908563 1.0851678

exp_avg f4 [1, 2]
000000 c6 4e 97 3c f1 59 0a bb
       0.01847018 -0.0021110738

exp_avg_sq f4 [1, 2]
000000 7a 7a 88 3d fd 61 1d 3b
       0.066639856 0.0024014704

exp_avg f4 [1, 2]
000000 0a be 25 3d ea 85 41 be
       0.04046444 -0.1889874

exp_avg_sq f4 [1, 2]
000000 14 cc 8d 3e 16 3f c3 3f
       0.27694762 1.5253627

exp_avg f4 [1, 2]
000000 7e b8 89 3d fc 9c 35 bd
       0.06724642 -0.044339165

exp_avg_sq f4 [1, 2]
000000 e3 f8 e6 3e 00 9f 0e 3e
       0.4511176 0.13927841

exp_avg f4 [1, 2]
000000 6d 9f b3 bd ef 05 e2 3d
       -0.087706424 0.11036288

exp_avg_sq f4 [1, 2]
000000 31 b3 8c 3d 4d 7e ce 3e
       0.068701155 0.40330735

exp_avg f4 [1, 2]
000000 c0 60 bd bc d0 5c 16 bc
       -0.023117423 -0.009177402

exp_avg_sq f4 [1, 2]
000000 64 75 d7 3c 06 f9 2f 3c
       0.026301093 0.010740524

exp_avg f4 [1, 2]
000000 f6 69 d8 3d 96 09 3a be
       0.105670854 -0.18167719

exp_avg_sq f4 [1, 2]
000000 67 e3 dd 3d bc c6 88 3f
       0.10834389 1.0685649

exp_avg f4 [1, 2]
000000 9c 7a e8 be 7d c4 bc bd
       -0.45406044 -0.09217165

exp_avg_sq f4 [1, 2]
000000 a7 17 0c 40 eb a7 5b 3e
       2.1889436 0.21450774

exp_avg f4 [1, 2]
000000 c7 d1 43 bd a7 df 14 3e
       -0.04780748 0.14538442

exp_avg_sq f4 [1, 2]
000000 30 db 5c 3d bb db fa 3e
       0.05391997 0.48995766

exp_avg f4 [1, 2]
000000 d8 7e b6 bc bf 4a 3c bd
       -0.02227728 -0.04596972

exp_avg_sq f4 [1, 2]
000000 ba 9e 84 3e aa 0f e5 3d
       0.2590235 0.11184628

exp_avg f4 [1, 2]
000000 ec cf 07 be ac 89 98 3e
       -0.1326291 0.29792535

exp_avg_sq f4 [1, 2]
000000 3b b3 06 3e 0a 26 17 40
       0.13154308 2.3616967

exp_avg f4 [1, 2]
000000 5a 3d c6 be b1 ae fa 3c
       -0.38718683 0.030600877

exp_avg_sq f4 [1, 2]
000000 01 bf 32 40 84 0e fc 3d
       2.792908 0.12307456

exp_avg f4 [1, 2]
000000 bb 92 e6 3d 21 7b 4b be
       0.11258455 -0.19871189

exp_avg_sq f4 [1, 2]
000000 54 57 85 3d 8f a9 eb 3f
       0.06510797 1.841112

exp_avg f4 [1, 2]
000000 21 2f da be 80 ef 75 bb
       -0.42614082 -0.0037526786

exp_avg_sq f4 [1, 2]
000000 f9 ff df 3f da 7c b9 3c
       1.7499992 0.022642542

exp_avg f4 [1, 2]
000000 d6 95 25 3d 2f 42 99 bd
       0.040426098 -0.07483327

exp_avg_sq f4 [1, 2]
000000 0a e7 6f 3d 72 40 46 3e
       0.058569945 0.19360521

exp_avg f4 [1, 2]
000000 b5 86 88 3c d7 e6 79 bc
       0.016665796 -0.01525279

exp_avg_sq f4 [1, 2]
000000 7f b6 4f 3d 45 11 ad 3b
       0.05071115 0.0052815997

exp_avg f4 [1, 2]
000000 b0 c5 1f 3e 91 12 e0 bd
       0.15602756 -0.10941041

exp_avg_sq f4 [1, 2]
000000 d7 10 29 3e 90 b8 1a 3f
       0.1651033 0.6043787

exp_avg f4 [1, 2]
000000 dd 4e 28 3c 10 25 d1 bc
       0.010272709 -0.025530368

exp_avg_sq f4 [1, 2]
000000 3d b4 e2 3d 61 27 30 3c
       0.11069534 0.010751576

exp_avg f4 [1, 2]
000000 5a 4b 10 3e e0 c7 01 be
       0.14091244 -0.12673903

exp_avg_sq f4 [1, 2]
000000 e5 54 53 3e ea da e9 3e
       0.20637853 0.4567483

exp_avg f4 [1, 2]
000000 35 aa 7d bd e7 1d 72 bd
       -0.0619299 -0.05911055

exp_avg_sq f4 [1, 2]
000000 26 62 24 3f 9f b0 8a 3e
       0.6421226 0.27087876

exp_avg f4 [1, 2]
000000 0b 51 37 bd b0 e3 02 bc
       -0.044755023 -0.007988855

exp_avg_sq f4 [1, 2]
000000 af e6 2a 3d b1 c6 12 3d
       0.041723903 0.03583402

exp_avg f4 [1, 2]
000000 2c 42 c7 bd f7 b7 93 bd
       -0.09729418 -0.07212823

exp_avg_sq f4 [1, 2]
000000 cf 35 7f 3e 2e 6b 03 3e
       0.2492287 0.12833855

exp_avg f4 [1, 2]
000000 67 55 99 bd 07 3d fa 3c
       -0.07486992 0.030546678

exp_avg_sq f4 [1, 2]
000000 7d 06 76 3d 68 7f 3e 3d
       0.06006478 0.046508223

exp_avg f4 [1, 2]
000000 3e 79 f6 bd b3 68 17 bd
       -0.12034844 -0.036965083

exp_avg_sq f4 [1, 2]
000000 6d 02 c1 3d 9b d7 d9 3c
       0.09424291 0.026592067

exp_avg f4 [1, 2]
000000 96 33 44 bd 25 12 a1 3c
       -0.04790076 0.019661972

exp_avg_sq f4 [1, 2]
000000 af dd 85 3d 6d d2 66 3d
       0.065364234 0.05635302
