models/model_U_3.pt (torch_old, 42908 bytes, 192 tensors)

model.0.w f4 [1, 2]
000000 0a 35 f8 bf 6c b0 2c c0
       -1.9391186 -2.698268

model.0.u f4 [1, 2]
000000 62 f5 da 3f 6b 7c d9 bf
       1.7106135 -1.6991094

model.1.w f4 [1, 2]
000000 66 98 14 bf 5c ec d1 bf
       -0.5804504 -1.6400256

model.1.u f4 [1, 2]
000000 e8 51 98 c0 96 ce 84 3f
       -4.7599983 1.0375545

model.2.w f4 [1, 2]
000000 34 46 5f 3e bb cf 27 40
       0.21804124 2.6220539

model.2.u f4 [1, 2]
000000 8b 42 88 40 df 27 50 3d
       4.258123 0.050819274

model.3.w f4 [1, 2]
000000 04 c5 12 3f e3 5b cf 3e
       0.5733187 0.40499792

model.3.u f4 [1, 2]
000000 42 b0 79 bf 91 e2 b7 bd
       -0.97534573 -0.08978761

model.4.w f4 [1, 2]
000000 8f 71 5c bd 51 85 a8 3e
       -0.053819235 0.32914212

model.4.u f4 [1, 2]
000000 47 b3 36 40 aa 43 df bf
       2.8546922 -1.7442524

model.5.w f4 [1, 2]
000000 f7 f9 d8 bf 9f 5b 34 bf
       -1.6951283 -0.704523

model.5.u f4 [1, 2]
000000 85 db 44 be 80 95 87 3f
       -0.19224365 1.0592499

model.6.w f4 [1, 2]
000000 d9 3d 1f c0 14 f2 03 c0
       -2.48815 -2.0616503

model.6.u f4 [1, 2]
000000 40 6a 14 c0 86 48 14 40
       -2.318985 2.3169265

model.7.w f4 [1, 2]
000000 20 e9 0d 40 01 c0 38 3f
       2.2173538 0.72167975

model.7.u f4 [1, 2]
000000 76 28 86 3b b1 48 d3 3f
       0.004094179 1.6506559

model.8.w f4 [1, 2]
000000 5f 0a 18 40 38 78 fe be
       2.375633 -0.49701095

model.8.u f4 [1, 2]
000000 93 21 53 3f 02 fd 38 3f
       0.82473105 0.7226106

model.9.w f4 [1, 2]
000000 5e 00 1e be d8 09 62 bf
       -0.15429828 -0.8829627

model.9.u f4 [1, 2]
000000 24 cc 24 3f 24 0b 1c 3f
       0.64373994 0.609545

model.10.w f4 [1, 2]
000000 7c 33 0e c0 f0 d5 63 3e
       -2.2218924 0.2224958

model.10.u f4 [1, 2]
000000 55 77 d0 3e 73 8e 6a 3f
       0.40716043 0.9162361

model.11.w f4 [1, 2]
000000 ee 25 6f 3f 37 d7 b9 bf
       0.9341725 -1.4518803

model.11.u f4 [1, 2]
000000 d8 0b ab 3d 14 fd de 3e
       0.083518684 0.43552458

model.12.w f4 [1, 2]
000000 f2 ef 74 c0 6f c9 db be
       -3.827145 -0.4292712

model.12.u f4 [1, 2]
000000 de 23 21 be 2b 79 37 3f
       -0.15736338 0.7166926

model.13.w f4 [1, 2]
000000 37 40 62 c1 7e 75 05 40
       -14.140677 2.0852962

model.13.u f4 [1, 2]
000000 e5 e6 28 be aa 91 6c 3e
       -0.1649433 0.23102441

model.14.w f4 [1, 2]
000000 79 b0 91 bf f3 94 14 c0
       -1.138198 -2.3215911

model.14.u f4 [1, 2]
000000 e9 76 32 3e 03 3f c0 bf
       0.17428173 -1.501923

model.15.w f4 [1, 2]
000000 b7 80 89 3f ab 9b 91 3e
       1.0742406 0.28439078

model.15.u f4 [1, 2]
000000 d4 eb 27 3f 9f 64 eb 3f
       0.6559422 1.8390082

model.16.w f4 [1, 2]
000000 69 c9 a4 3f 1a 88 28 be
       1.2873966 -0.16458169

model.16.u f4 [1, 2]
000000 b5 e6 7e 3f 4b de 89 3f
       0.9957078 1.0770963

model.17.w f4 [1, 2]
000000 82 2b 07 3f 51 5c b9 be
       0.5280076 -0.36203244

model.17.u f4 [1, 2]
000000 0c bc 2e 3e e3 ef e7 3f
       0.17063922 1.8120083

model.18.w f4 [1, 2]
000000 67 93 9d bf f6 6f d2 c0
       -1.2310609 -6.576167

model.18.u f4 [1, 2]
000000 59 7c 12 bf c6 fe 4e be
       -0.5722099 -0.20214376

model.19.w f4 [1, 2]
000000 4c a0 8e bf 97 57 07 c1
       -1.1142669 -8.458884

model.19.u f4 [1, 2]
000000 f7 26 27 bf d6 af 08 bf
       -0.6529383 -0.53393304

model.20.w f4 [1, 2]
000000 1f 44 df 3d 54 0c 25 bf
       0.10901665 -0.64471936

model.20.u f4 [1, 2]
000000 d8 16 07 40 4d b6 a8 3e
       2.1107693 0.32951584

model.21.w f4 [1, 2]
000000 12 68 bb 3f 28 b0 bc 3f
       1.4641135 1.4741259

model.21.u f4 [1, 2]
000000 33 ea 5f 3a 44 50 05 bf
       0.00085416733 -0.520756

model.22.w f4 [1, 2]
000000 d7 b8 27 bf 61 10 8a c0
       -0.6551642 -4.3144994

model.22.u f4 [1, 2]
000000 41 18 32 be 96 ed 00 3d
       -0.17392065 0.03147658

model.23.w f4 [1, 2]
000000 0d db fd be 7f 0c eb bf
       -0.49581185 -1.8363189

model.23.u f4 [1, 2]
000000 96 51 01 3d 10 ae da 3e
       0.031571947 0.42710924

model.24.w f4 [1, 2]
000000 b0 4c 8c bf 80 fd 82 bf
       -1.0960903 -1.0233612

model.24.u f4 [1, 2]
000000 0e 62 c4 3f 7a df 79 bf
       1.5342424 -0.97606623

model.25.w f4 [1, 2]
000000 ab 8b a6 3f 73 dd 89 3f
       1.3011373 1.0770706

model.25.u f4 [1, 2]
000000 3b 63 f9 be 3e 6f 4e be
       -0.4870852 -0.20159623

model.26.w f4 [1, 2]
000000 5d 4b 13 bf 18 52 b9 3e
       -0.5753687 0.36195445

model.26.u f4 [1, 2]
000000 10 e9 34 bf c7 b0 8c bf
       -0.70668125 -1.0991448

model.27.w f4 [1, 2]
000000 3f 80 b2 3e 69 d0 34 bf
       0.3486347 -0.7063051

model.27.u f4 [1, 2]
000000 91 07 48 c0 d0 20 92 bf
       -3.1254618 -1.1416264

model.28.w f4 [1, 2]
000000 3d f8 8a 3e b0 2e b3 bd
       0.27142516 -0.08749139

model.28.u f4 [1, 2]
000000 29 8a 08 bf 17 d5 01 c0
       -0.53335816 -2.028631

model.29.w f4 [1, 2]
000000 37 20 20 c0 19 95 7f 3f
       -2.5019662 0.9983688

model.29.u f4 [1, 2]
000000 ee 50 ba be d7 4d 8a bf
       -0.3638987 -1.0805005

model.30.w f4 [1, 2]
000000 c6 f4 05 3f 4a 63 4b bf
       0.5232662 -0.7944838

model.30.u f4 [1, 2]
000000 c5 de 7d bf 3d bb 0d c0
       -0.99168044 -2.214553

model.31.w f4 [1, 2]
000000 a4 09 12 40 10 69 84 bf
       2.2818384 -1.0344563

model.31.u f4 [1, 2]
000000 7b b1 88 3f 0c 66 81 c0
       1.0679163 -4.043707

exp_avg f4 [1, 2]
000000 f1 73 57 bc 7e 73 c6 3a
       -0.013150201 0.001514062

exp_avg_sq f4 [1, 2]
000000 26 03 03 3c 91 0f 56 3b
       0.007996356 0.0032663087

exp_avg f4 [1, 2]
000000 d4 50 65 3d 13 bc 6f 3d
       0.055985287 0.05852897

exp_avg_sq f4 [1, 2]
000000 63 5b 49 3e 35 da 80 3f
       0.19663768 1.0066592

exp_avg f4 [1, 2]
000000 88 04 f8 3c e1 b8 ce 3c
       0.030275598 0.025234642

exp_avg_sq f4 [1, 2]
000000 1f 59 41 3e 09 cb 83 3d
       0.18881653 0.0643521

exp_avg f4 [1, 2]
000000 c0 44 74 3d 33 cc 87 3c
       0.059635878 0.016576862

exp_avg_sq f4 [1, 2]
000000 90 f1 06 3e da 14 45 3f
       0.13178086 0.7698494

exp_avg f4 [1, 2]
000000 88 b6 47 3c 42 63 d7 3c
       0.012189515 0.026292447

exp_avg_sq f4 [1, 2]
000000 4a b1 8f 3d f9 fa 28 3d
       0.07016237 0.04125497

exp_avg f4 [1, 2]
000000 54 2f 5a 3d 88 ca ee 3d
       0.053267792 0.116597235

exp_avg_sq f4 [1, 2]
000000 87 1f 06 3e 8b d1 39 3f
       0.13097964 0.7258536

exp_avg f4 [1, 2]
000000 18 46 86 be 5e 8e 1a 3d
       -0.26225352 0.03773343

exp_avg_sq f4 [1, 2]
000000 65 8d 8e 3f ad 65 1e 3e
       1.11369 0.15468474

exp_avg f4 [1, 2]
000000 44 e8 5d 3d 34 69 fd 3d
       0.054176584 0.123735815

exp_avg_sq f4 [1, 2]
000000 e1 4c 08 3e 7a f1 a4 3e
       0.13310577 0.32215482

exp_avg f4 [1, 2]
000000 af c2 78 bf 42 a4 ce be
       -0.97172064 -0.40359694

exp_avg_sq f4 [1, 2]
000000 c7 2e 87 41 1c 32 1a 40
       16.89784 2.4093084

exp_avg f4 [1, 2]
000000 8f 63 78 bd 5c c0 8b bd
       -0.06064182 -0.06823799

exp_avg_sq f4 [1, 2]
000000 1d 5d 17 3e b4 56 e5 3e
       0.14781614 0.44792712

exp_avg f4 [1, 2]
000000 ce 1a fc 3c 94 09 56 3d
       0.0307745 0.05225523

exp_avg_sq f4 [1, 2]
000000 1d 3d 0e 3e 2e 01 8b 3e
       0.138905 0.27149338

exp_avg f4 [1, 2]
000000 f6 6c 4b be 56 ab 9c be
       -0.19865784 -0.3059947

exp_avg_sq f4 [1, 2]
000000 61 7b 95 3f e0 e8 70 3f
       1.1678277 0.9410534

exp_avg f4 [1, 2]
000000 2b 1c 4f bd 5f eb 73 3d
       -0.050563972 0.05955064

exp_avg_sq f4 [1, 2]
000000 91 01 0b 3e 7b 74 81 3e
       0.13574816 0.2528418

exp_avg f4 [1, 2]
000000 14 a9 39 bd ac e7 68 be
       -0.04532726 -0.22744626

exp_avg_sq f4 [1, 2]
000000 53 33 eb 3d 55 b7 e3 3e
       0.11484399 0.4447581

exp_avg f4 [1, 2]
000000 94 6b bc 3b f0 4f 93 3b
       0.005750129 0.0044956133

exp_avg_sq f4 [1, 2]
000000 8f cd e3 3c aa b3 d7 3c
       0.027807979 0.026330788

exp_avg f4 [1, 2]
000000 30 f7 1c bb e2 d6 41 3e
       -0.0023951046 0.18929628

exp_avg_sq f4 [1, 2]
000000 5a f5 80 3e c9 8d 3f 3f
       0.25187188 0.7482572

exp_avg f4 [1, 2]
000000 78 f9 6e 3b 15 d6 80 3b
       0.0036464613 0.0039317706

exp_avg_sq f4 [1, 2]
000000 d1 0a a6 3a fd 7d 61 3b
       0.0012668018 0.003440737

exp_avg f4 [1, 2]
000000 d3 19 4d 3d b0 33 0f 3e
       0.050073456 0.13984561

exp_avg_sq f4 [1, 2]
000000 7b 3a a8 3e 86 60 57 3f
       0.32857117 0.8413166

exp_avg f4 [1, 2]
000000 18 53 9f 3f b4 d0 02 be
       1.2447233 -0.12774926

exp_avg_sq f4 [1, 2]
000000 dc a9 5e 41 a4 41 0f 3e
       13.91647 0.13989884

exp_avg f4 [1, 2]
000000 47 37 59 3b e9 fc 09 be
       0.003314452 -0.13475384

exp_avg_sq f4 [1, 2]
000000 1a 07 6e 3e ca 69 59 3f
       0.23244897 0.84927046

exp_avg f4 [1, 2]
000000 08 d1 bb 3b b2 a5 a8 3c
       0.0057317056 0.020586822

exp_avg_sq f4 [1, 2]
000000 b4 fa 02 3c 49 1f b3 3c
       0.007994343 0.021865504

exp_avg f4 [1, 2]
000000 b1 c6 03 be 3e ae b5 be
       -0.12868764 -0.354845

exp_avg_sq f4 [1, 2]
000000 28 6d 2b 3f 01 c0 2c 40
       0.66963434 2.699219

exp_avg f4 [1, 2]
000000 2c 6f 13 bb 3c b8 ff 3b
       -0.0022496684 0.007803945

exp_avg_sq f4 [1, 2]
000000 94 53 dd 3b fe 60 b8 3b
       0.006754348 0.0056267967

exp_avg f4 [1, 2]
000000 bf b3 d9 3d a7 13 a8 3e
       0.10629987 0.32827494

exp_avg_sq f4 [1, 2]
000000 d1 27 15 3f 1a c5 32 40
       0.5826388 2.7932801

exp_avg f4 [1, 2]
000000 20 60 1b 3b 05 07 8d 3c
       0.0023708418 0.017215261

exp_avg_sq f4 [1, 2]
000000 f1 7e 69 3a a2 a3 aa 3b
       0.00089071604 0.005207495

exp_avg f4 [1, 2]
000000 8e 7c 06 be ac 4a ce be
       -0.13133451 -0.40291345

exp_avg_sq f4 [1, 2]
000000 84 75 0d 3f 08 34 3b 40
       0.5525744 2.9250507

exp_avg f4 [1, 2]
000000 a8 b3 41 b9 0b 5b e5 39
       -0.00018472841 0.00043746116

exp_avg_sq f4 [1, 2]
000000 71 b8 0d 36 09 e6 db 37
       2.1117996e-06 2.6213953e-05

exp_avg f4 [1, 2]
000000 ec 00 4d be 0a 55 ee be
       -0.20019883 -0.46549255

exp_avg_sq f4 [1, 2]
000000 bb 84 c4 3f 69 76 49 40
       1.5353006 3.1478522

exp_avg f4 [1, 2]
000000 cc 18 fa be 11 f9 5b 3e
       -0.48847044 0.2148173

exp_avg_sq f4 [1, 2]
000000 f6 be 2d 40 78 59 37 3f
       2.7147803 0.71620893

exp_avg f4 [1, 2]
000000 30 e5 35 3d 83 93 ed bd
       0.044408023 -0.11600401

exp_avg_sq f4 [1, 2]
000000 b9 57 0d 3f b1 73 8d 3e
       0.5521198 0.27627328

exp_avg f4 [1, 2]
000000 0a 2c 58 3c 68 f1 3e bc
       0.0131940935 -0.011654235

exp_avg_sq f4 [1, 2]
000000 de 04 93 3d 65 ba 4b 3f
       0.07178663 0.7958129

exp_avg f4 [1, 2]
000000 16 65 f4 bc d4 d3 26 3e
       -0.029833358 0.16291744

exp_avg_sq f4 [1, 2]
000000 49 08 f8 3d 28 e6 bf 3e
       0.12110955 0.37480283

exp_avg f4 [1, 2]
000000 5c 40 5a 3b 09 4a 01 3d
       0.0033302521 0.031564746

exp_avg_sq f4 [1, 2]
000000 3b 23 fe 3c 29 e7 90 3d
       0.031022659 0.0707534

exp_avg f4 [1, 2]
000000 40 dc 3a bd cd 12 24 3e
       -0.045620203 0.16022797

exp_avg_sq f4 [1, 2]
000000 87 81 03 3e 5f fa d4 3e
       0.1284238 0.41597268

exp_avg f4 [1, 2]
000000 d0 82 5b bb a0 3b 81 3d
       -0.0033494718 0.06310201

exp_avg_sq f4 [1, 2]
000000 e2 1b 2a 3e 38 0a 57 3e
       0.16612199 0.20999992

exp_avg f4 [1, 2]
000000 cc b1 fc bc d7 12 19 3e
       -0.030846499 0.14948593

exp_avg_sq f4 [1, 2]
000000 73 77 c1 3d 92 77 e7 3e
       0.09446611 0.45208412

exp_avg f4 [1, 2]
000000 b6 d7 57 bb 57 5a 65 3a
       -0.003293497 0.00087491184

exp_avg_sq f4 [1, 2]
000000 7f ae b2 3a 6d 4d db 37
       0.0013632326 2.6142889e-05

exp_avg f4 [1, 2]
000000 ec 9f 88 3d 86 c2 5c be
       0.06671128 -0.2155858

exp_avg_sq f4 [1, 2]
000000 ba aa e9 3d 94 f2 f0 3e
       0.11409517 0.47060072

exp_avg f4 [1, 2]
000000 0e 2d 29 ba 00 21 ba 39
       -0.0006453552 0.00035501271

exp_avg_sq f4 [1, 2]
000000 6a 1d 25 39 20 bf a2 36
       0.00015746584 4.850226e-06

exp_avg f4 [1, 2]
000000 45 92 94 3d a6 2e 71 be
       0.07254461 -0.23552951

exp_avg_sq f4 [1, 2]
000000 3d 79 ef 3d 10 46 f4 3e
       0.11693046 0.47709703

exp_avg f4 [1, 2]
000000 3a b0 a4 bd 71 00 21 bd
       -0.08041425 -0.03930706

exp_avg_sq f4 [1, 2]
000000 04 89 70 3f 0b a0 8e 3e
       0.9395907 0.27856478

exp_avg f4 [1, 2]
000000 c1 c4 2b 3d 7e 89 38 be
       0.041935686 -0.18021199

exp_avg_sq f4 [1, 2]
000000 12 27 89 3d c0 87 ac 3e
       0.06696905 0.3369732

exp_avg f4 [1, 2]
000000 f4 81 87 bb b5 8c 9b bb
       -0.0041353647 -0.004746998

exp_avg_sq f4 [1, 2]
000000 a5 0c a4 3a 88 d5 b6 3b
       0.0012515975 0.005579654

exp_avg f4 [1, 2]
000000 5e 82 4b bd 24 91 3b 3e
       -0.049684875 0.18317086

exp_avg_sq f4 [1, 2]
000000 7d 6e da 3d dd c8 e7 3e
       0.10665605 0.45270434

exp_avg f4 [1, 2]
000000 49 7a 5d 3b 87 5b a2 3a
       0.0033794811 0.0012386896

exp_avg_sq f4 [1, 2]
000000 f3 d0 81 39 35 fe ad 37
       0.00024760477 2.0741581e-05

exp_avg f4 [1, 2]
000000 5c 46 15 3d fe a6 15 be
       0.036444053 -0.14614484

exp_avg_sq f4 [1, 2]
000000 ba a7 de 3d 57 db e7 3e
       0.10871835 0.4528453

exp_avg f4 [1, 2]
000000 03 6a b4 bb f4 83 8e 3c
       -0.0055058016 0.017396905

exp_avg_sq f4 [1, 2]
000000 f5 28 fa 3b 19 b4 88 3a
       0.007634277 0.001042965

exp_avg f4 [1, 2]
000000 71 31 20 3d c3 2c 87 be
       0.03910965 -0.26401338

exp_avg_sq f4 [1, 2]
000000 39 80 df 3d 83 73 fd 3e
       0.109131284 0.4950219

exp_avg f4 [1, 2]
000000 f1 04 32 bd fe c3 cc bc
       -0.043461744 -0.0249958

exp_avg_sq f4 [1, 2]
000000 b9 5f 85 3e 75 61 e1 3b
       0.26049593 0.006878073

exp_avg f4 [1, 2]
000000 32 fe 8b 3d ea a0 1a be
       0.06835593 -0.15100446

exp_avg_sq f4 [1, 2]
000000 0d 1f 0d 3e c1 65 e1 3e
       0.13781376 0.44022945

exp_avg f4 [1, 2]
000000 66 f6 24 3d b6 23 83 bb
       0.040274046 -0.00400206

exp_avg_sq f4 [1, 2]
000000 2a a3 9f 3c b1 03 ff 3b
       0.019486982 0.0077824225

exp_avg f4 [1, 2]
000000 c1 a2 fc bd 2a e9 bd 3d
       -0.1233573 0.09272988

exp_avg_sq f4 [1, 2]
000000 34 a5 9a 3e 53 b8 f2 3e
       0.30204165 0.47406253

exp_avg f4 [1, 2]
000000 d4 9b ba bd 12 fc 15 be
       -0.09111753 -0.14646938

exp_avg_sq f4 [1, 2]
000000 23 7a 2d 3f 31 70 5c 3f
       0.6776449 0.8610869

exp_avg f4 [1, 2]
000000 e4 1c 9e 3d b0 53 f5 bd
       0.07720354 -0.11978853

exp_avg_sq f4 [1, 2]
000000 c7 94 90 3d 39 0f a3 3e
       0.07059627 0.3184755

exp_avg f4 [1, 2]
000000 a7 84 42 3f f2 63 d0 3e
       0.7598366 0.40701252

exp_avg_sq f4 [1, 2]
000000 06 90 17 41 99 7f 3a 40
       9.472662 2.914038

exp_avg f4 [1, 2]
000000 e6 2a 3e 3d 61 16 38 be
       0.04642763 -0.17977287

exp_avg_sq f4 [1, 2]
000000 13 b6 50 3e 19 50 ce 3e
       0.20381956 0.40295485

exp_avg f4 [1, 2]
000000 4d 9c b5 be de 06 8b be
       -0.3547081 -0.27153677

exp_avg_sq f4 [1, 2]
000000 ca c0 7d 40 5d 91 36 40
       3.964892 2.8526223

exp_avg f4 [1, 2]
000000 9a 95 9d bd cf 4c 4b 3e
       -0.0769455 0.19853519

exp_avg_sq f4 [1, 2]
000000 ec d4 81 3d 0c 50 a2 3e
       0.0633944 0.31701696

exp_avg f4 [1, 2]
000000 e4 b3 53 bc 53 9c d6 bc
       -0.012921307 -0.026197588

exp_avg_sq f4 [1, 2]
000000 98 ca 85 3c 37 39 b5 3c
       0.016331956 0.022122009

exp_avg f4 [1, 2]
000000 df 2c ce 3d b8 04 67 be
       0.10067152 -0.22560394

exp_avg_sq f4 [1, 2]
000000 32 64 d7 3e 57 b6 2f 3f
       0.4206863 0.68637604

exp_avg f4 [1, 2]
000000 52 68 ab bf 7c 47 56 bf
       -1.3391211 -0.83702826

exp_avg_sq f4 [1, 2]
000000 43 46 42 41 0c 96 9e 40
       12.142154 4.9558163

exp_avg f4 [1, 2]
000000 a3 2e 3d 3d 70 53 a3 3b
       0.046187054 0.0049843118

exp_avg_sq f4 [1, 2]
000000 00 26 df 3d df d4 79 3d
       0.1089592 0.060994025

exp_avg f4 [1, 2]
000000 74 fc 42 bd e2 14 04 be
       -0.04760404 -0.12898591

exp_avg_sq f4 [1, 2]
000000 35 84 c1 3d 6f 11 a8 3e
       0.094490446 0.328258

exp_avg f4 [1, 2]
000000 6c a7 a5 3c 5a dd a0 3d
       0.020221435 0.078547195

exp_avg_sq f4 [1, 2]
000000 f7 d6 af 3d 7c 06 c0 3d
       0.08585923 0.09376237
