models/model_U_2.pt (torch_old, 42714 bytes, 192 tensors)

model.0.w f4 [1, 2]
000000 fb 16 f1 be 23 49 68 be
       -0.47087845 -0.2268415

model.0.u f4 [1, 2]
000000 da e0 c4 3d 94 96 f6 3f
       0.096131995 1.9264703

model.1.w f4 [1, 2]
000000 7d ff 36 3f f3 c0 8e be
       0.71483594 -0.27881584

model.1.u f4 [1, 2]
000000 21 a3 5d 3f 80 1d 76 3e
       0.8657704 0.24034691

model.2.w f4 [1, 2]
000000 2c ce 4c bf ec d2 0c 3f
       -0.80002093 0.5500934

model.2.u f4 [1, 2]
000000 4a d3 74 bb 0b 95 44 bf
       -0.0037357383 -0.7678992

model.3.w f4 [1, 2]
000000 dd 16 53 bf 88 ba 0f 3f
       -0.8245676 0.56144

model.3.u f4 [1, 2]
000000 ba 4a c1 3d 4a 2f 8a bf
       0.09438081 -1.0795681

model.4.w f4 [1, 2]
000000 25 e9 35 3f 64 12 84 bf
       0.71058875 -1.0318112

model.4.u f4 [1, 2]
000000 02 1a 1b 3f a6 ee 4b 3e
       0.6058656 0.19915256

model.5.w f4 [1, 2]
000000 0c a6 53 be 83 e8 a4 be
       -0.2066881 -0.32208642

model.5.u f4 [1, 2]
000000 d2 58 96 3e cd 41 79 3f
       0.2936464 0.9736603

model.6.w f4 [1, 2]
000000 bf 4b 3c 3f c2 01 a2 3d
       0.7355308 0.079104915

model.6.u f4 [1, 2]
000000 c4 69 a5 3f 04 54 98 3d
       1.2922902 0.074379

model.7.w f4 [1, 2]
000000 12 65 29 be e6 29 b4 be
       -0.16542462 -0.35188216

model.7.u f4 [1, 2]
000000 5f 52 6c bd d6 20 70 3f
       -0.057695743 0.93800104

model.8.w f4 [1, 2]
000000 76 b8 67 bf ba f8 d9 be
       -0.9051584 -0.42572576

model.8.u f4 [1, 2]
000000 45 b3 d0 3c 49 4c 40 3f
       0.025476107 0.751164

model.9.w f4 [1, 2]
000000 d1 da 07 bc c0 ad 10 3f
       -0.008291916 0.5651512

model.9.u f4 [1, 2]
000000 fc 8e 91 be 94 43 47 bf
       -0.284294 -0.7783749

model.10.w f4 [1, 2]
000000 b9 58 41 bd 6e cb 2c 3f
       -0.047203753 0.6749791

model.10.u f4 [1, 2]
000000 06 c9 a8 be 45 fe 05 bf
       -0.3296587 -0.5234111

model.11.w f4 [1, 2]
000000 1a c0 6e bf 7f d0 1c bf
       -0.93261874 -0.6125564

model.11.u f4 [1, 2]
000000 70 55 1c be 39 19 2c 3f
       -0.15266967 0.67225987

model.12.w f4 [1, 2]
000000 e5 93 21 3f b2 57 70 3f
       0.63116294 0.9388381

model.12.u f4 [1, 2]
000000 4a c9 af 3e 64 34 df 3e
       0.3433326 0.43594658

model.13.w f4 [1, 2]
000000 03 9d 20 bf e3 2e 28 c0
       -0.6273958 -2.6278617

model.13.u f4 [1, 2]
000000 d5 c2 80 bf 9b 99 1f be
       -1.0059458 -0.1558594

model.14.w f4 [1, 2]
000000 ef 1f fd bd 4e b2 16 bf
       -0.123596065 -0.5886582

model.14.u f4 [1, 2]
000000 55 46 22 3e ab 58 f2 3e
       0.15847142 0.47333273

model.15.w f4 [1, 2]
000000 17 aa 8e 3f 69 c1 ba 3e
       1.1145657 0.36475685

model.15.u f4 [1, 2]
000000 1a 2d ab be a1 cd 0b 3f
       -0.33432847 0.5461064

model.16.w f4 [1, 2]
000000 16 36 5d bf bf b4 14 3e
       -0.86410654 0.14522074

model.16.u f4 [1, 2]
000000 28 fe 6a be 96 e0 ef 3e
       -0.22948515 0.46851033

model.17.w f4 [1, 2]
000000 e0 62 54 3f 83 94 68 be
       0.8296337 -0.22712903

model.17.u f4 [1, 2]
000000 ae c0 9c 3e 4c a7 e3 be
       0.30615753 -0.44463575

model.18.w f4 [1, 2]
000000 47 fa 40 3f c4 0e 67 be
       0.7538189 -0.22564226

model.18.u f4 [1, 2]
000000 19 8e 14 3e 97 f4 84 be
       0.14507331 -0.25967857

model.19.w f4 [1, 2]
000000 f0 61 48 3f 95 6a 81 be
       0.7827444 -0.25276628

model.19.u f4 [1, 2]
000000 e0 80 b0 b7 2d 59 a3 be
       -2.1040847e-05 -0.31903973

model.20.w f4 [1, 2]
000000 d0 e5 5a 3f fb eb f5 bd
       0.85506916 -0.120079

model.20.u f4 [1, 2]
000000 64 1b 34 bd 31 1d 74 be
       -0.043971434 -0.2383926

model.21.w f4 [1, 2]
000000 c7 ae 57 bf a5 f5 57 3c
       -0.84251064 0.013181125

model.21.u f4 [1, 2]
000000 61 f3 63 bd b8 81 d3 3e
       -0.055652026 0.41309905

model.22.w f4 [1, 2]
000000 fc a1 17 3f b8 48 ee 3e
       0.59231544 0.46539855

model.22.u f4 [1, 2]
000000 f7 26 2d be ea 4d 3b 3f
       -0.16909395 0.7316576

model.23.w f4 [1, 2]
000000 96 70 2d bf 14 8c 4e bf
       -0.6774992 -0.8068249

model.23.u f4 [1, 2]
000000 79 48 f4 3d f1 41 80 bf
       0.119278856 -1.0020124

model.24.w f4 [1, 2]
000000 30 24 0a be ba 14 70 be
       -0.13490367 -0.23445407

model.24.u f4 [1, 2]
000000 e3 04 0f 3f 75 3c 50 3f
       0.5586683 0.8134225

model.25.w f4 [1, 2]
000000 35 99 ce bf 84 3d be be
       -1.6140505 -0.37156308

model.25.u f4 [1, 2]
000000 86 5b 49 bf fa ad 16 bf
       -0.7865528 -0.5885922

model.26.w f4 [1, 2]
000000 80 1c f8 3d 51 46 2f 3d
       0.12114811 0.04279167

model.26.u f4 [1, 2]
000000 dc e3 a9 be d3 9e e7 be
       -0.33181655 -0.4523836

model.27.w f4 [1, 2]
000000 c8 fc c7 3d 38 dc c1 3d
       0.09765011 0.094658315

model.27.u f4 [1, 2]
000000 18 15 ec be 29 19 c9 be
       -0.46109843 -0.39277008

model.28.w f4 [1, 2]
000000 eb a1 32 3f 15 f6 04 3f
       0.6977832 0.5193799

model.28.u f4 [1, 2]
000000 60 f8 50 3f ba 86 de bc
       0.8162899 -0.027163852

model.29.w f4 [1, 2]
000000 ee 2e b1 3f 5c 05 7f bd
       1.3842447 -0.06226097

model.29.u f4 [1, 2]
000000 6a 47 f8 3e c4 38 8b 3f
       0.48491985 1.0876698

model.30.w f4 [1, 2]
000000 71 ba 54 bf cc 95 c6 3e
       -0.83096987 0.3878616

model.30.u f4 [1, 2]
000000 09 51 25 3e ce ce 25 bf
       0.16144194 -0.64768684

model.31.w f4 [1, 2]
000000 f6 87 8a 3e 91 bc 9f bf
       0.27056855 -1.2479421

model.31.u f4 [1, 2]
000000 66 2c a1 be 83 71 00 c0
       -0.31479186 -2.0069282

exp_avg f4 [1, 2]
000000 0d ef a4 3d 7a 20 17 be
       0.08053408 -0.14758483

exp_avg_sq f4 [1, 2]
000000 35 f9 81 3d 56 c9 43 3e
       0.063463606 0.19119772

exp_avg f4 [1, 2]
000000 9c 73 08 3d 59 2d 87 bc
       0.03331338 -0.016501116

exp_avg_sq f4 [1, 2]
000000 99 85 bc 3c 1c 1f e6 3b
       0.023012923 0.0070227515

exp_avg f4 [1, 2]
000000 7f 80 5f bc a6 20 0a bc
       -0.013641476 -0.008430636

exp_avg_sq f4 [1, 2]
000000 a8 4d b4 3b cd 51 26 3c
       0.0055024214 0.010151339

exp_avg f4 [1, 2]
000000 9e 6f 72 bc cd dd df 3c
       -0.014797119 0.027327443

exp_avg_sq f4 [1, 2]
000000 c1 72 be 3c 39 db 85 3c
       0.023248078 0.016339885

exp_avg f4 [1, 2]
000000 5a 8b 3b 3c e9 11 a1 bb
       0.011446798 -0.004915465

exp_avg_sq f4 [1, 2]
000000 26 21 ba 3b c5 f7 d5 3b
       0.005680221 0.0065297806

exp_avg f4 [1, 2]
000000 00 04 0e 3c c6 d1 c0 bc
       0.008667946 -0.023537528

exp_avg_sq f4 [1, 2]
000000 03 a8 f0 3c 0b 19 0e 3d
       0.02937699 0.03469185

exp_avg f4 [1, 2]
000000 33 c1 0c 3d b0 21 23 ba
       0.034363937 -0.00062229764

exp_avg_sq f4 [1, 2]
000000 af 4f ab 3d b8 4f 9c 3d
       0.08364808 0.07632393

exp_avg f4 [1, 2]
000000 e4 66 83 bc 8a 99 56 bc
       -0.016040273 -0.01309813

exp_avg_sq f4 [1, 2]
000000 f8 11 38 3d fb 8a 5e 3d
       0.04493901 0.05433176

exp_avg f4 [1, 2]
000000 c0 c2 09 bc ec 33 3c bb
       -0.008408248 -0.0028717471

exp_avg_sq f4 [1, 2]
000000 96 6b 35 3c 6d b1 2a 3c
       0.011073014 0.010418278

exp_avg f4 [1, 2]
000000 78 b2 10 bb 38 9a 32 3d
       -0.0022079032 0.043604106

exp_avg_sq f4 [1, 2]
000000 8a d7 ea 3c a9 4a a8 3c
       0.02866723 0.020543413

exp_avg f4 [1, 2]
000000 ec 23 af 3d 1b 96 1b bd
       0.085517734 -0.03798495

exp_avg_sq f4 [1, 2]
000000 53 82 4d 3e f9 74 8b 3d
       0.20069246 0.0680942

exp_avg f4 [1, 2]
000000 a0 b6 a7 bb 00 2c 94 ba
       -0.005118206 -0.0011304617

exp_avg_sq f4 [1, 2]
000000 d0 6d 91 3c a1 5e 1f 3d
       0.017752558 0.038908605

exp_avg f4 [1, 2]
000000 fd 20 0c 3c 1e 38 c8 bb
       0.008552787 -0.0061102053

exp_avg_sq f4 [1, 2]
000000 24 7f 07 3c 49 42 bd 3b
       0.008270059 0.005775724

exp_avg f4 [1, 2]
000000 80 a9 69 3a 1e 4a 2c 3d
       0.0008913502 0.04206287

exp_avg_sq f4 [1, 2]
000000 12 a5 a6 3c 33 6f 8b 3d
       0.020342384 0.06808319

exp_avg f4 [1, 2]
000000 28 94 1f 3e f5 39 3f bd
       0.15583861 -0.04668613

exp_avg_sq f4 [1, 2]
000000 31 06 3e 3f a5 3c 89 3d
       0.742282 0.0670102

exp_avg f4 [1, 2]
000000 00 3e 9d b8 04 b0 9e bc
       -7.497892e-05 -0.01937104

exp_avg_sq f4 [1, 2]
000000 e3 8e f0 3b 6c 3f 68 3d
       0.007341252 0.05670111

exp_avg f4 [1, 2]
000000 80 c0 b6 bc 90 36 92 3b
       -0.022308588 0.0044620708

exp_avg_sq f4 [1, 2]
000000 a6 d4 97 3d 03 ce cb 3b
       0.07413606 0.006219627

exp_avg f4 [1, 2]
000000 f4 f0 9a 3c 90 10 f2 bb
       0.018913724 -0.0073872283

exp_avg_sq f4 [1, 2]
000000 7e e4 85 3d 57 13 ca 3e
       0.06537722 0.3946788

exp_avg f4 [1, 2]
000000 50 b6 12 bc c6 61 87 bc
       -0.0089545995 -0.016526114

exp_avg_sq f4 [1, 2]
000000 cf d1 e0 3f 7f 9f 97 3e
       1.7564029 0.29613873

exp_avg f4 [1, 2]
000000 24 91 fb ba 2f 14 f1 bc
       -0.0019193036 -0.02942857

exp_avg_sq f4 [1, 2]
000000 80 50 94 3c 27 55 28 3e
       0.018104792 0.16438733

exp_avg f4 [1, 2]
000000 80 2c 70 3c 9b 42 8b bc
       0.014659047 -0.016999533

exp_avg_sq f4 [1, 2]
000000 09 92 01 40 72 a4 e1 3d
       2.0245383 0.110176936

exp_avg f4 [1, 2]
000000 80 5b d2 ba a0 f8 d2 ba
       -0.0016048998 -0.0016095825

exp_avg_sq f4 [1, 2]
000000 fc a5 6d 3c d5 9d 92 3e
       0.014504906 0.2863604

exp_avg f4 [1, 2]
000000 07 b1 14 be ea 70 0e 3d
       -0.14520656 0.034775652

exp_avg_sq f4 [1, 2]
000000 53 e2 53 3f a2 f9 b0 3c
       0.8276722 0.02160341

exp_avg f4 [1, 2]
000000 be 72 9d 3d 46 03 bb 3d
       0.07687901 0.09131484

exp_avg_sq f4 [1, 2]
000000 f1 cd 22 3f ac 17 7b 40
       0.6359549 3.9233198

exp_avg f4 [1, 2]
000000 fa 63 d2 bd fe 1a 81 3d
       -0.10272975 0.063039765

exp_avg_sq f4 [1, 2]
000000 39 5b 93 3f 41 ed a4 3e
       1.1512214 0.3221226

exp_avg f4 [1, 2]
000000 1e b3 bd 3c 62 79 e1 3d
       0.023156699 0.1100948

exp_avg_sq f4 [1, 2]
000000 86 0c c2 3c 7a 08 aa 3e
       0.023687612 0.33209592

exp_avg f4 [1, 2]
000000 7c 4a e6 bc 91 a1 96 bc
       -0.028111689 -0.018387588

exp_avg_sq f4 [1, 2]
000000 a9 c8 80 3e 79 9d 30 3d
       0.25153092 0.043118928

exp_avg f4 [1, 2]
000000 40 52 71 bd ca ea a2 bd
       -0.05891633 -0.07954939

exp_avg_sq f4 [1, 2]
000000 63 4f a8 3d 84 41 92 3e
       0.08218267 0.2856561

exp_avg f4 [1, 2]
000000 76 28 47 3e c4 f5 60 3c
       0.19449028 0.01373047

exp_avg_sq f4 [1, 2]
000000 27 61 db 3f a8 2a 48 3e
       1.7139024 0.19547522

exp_avg f4 [1, 2]
000000 a4 97 d2 bb db db b0 bc
       -0.0064267684 -0.02158921

exp_avg_sq f4 [1, 2]
000000 b7 04 e9 3c c1 a5 17 3e
       0.028444631 0.14809324

exp_avg f4 [1, 2]
000000 6c fa ba bb ae dd 99 3b
       -0.005706122 0.0046956157

exp_avg_sq f4 [1, 2]
000000 d5 b5 7f 3d 93 dc 43 3d
       0.062429268 0.047817778

exp_avg f4 [1, 2]
000000 8c 87 cc 3b d8 eb 9d 3c
       0.0062417444 0.019277498

exp_avg_sq f4 [1, 2]
000000 0f fd fe 3c da 12 77 3f
       0.031126527 0.9651314

exp_avg f4 [1, 2]
000000 57 4f cc bc c9 d3 1f 3b
       -0.024940176 0.0024387708

exp_avg_sq f4 [1, 2]
000000 bc 55 02 3d 92 8a 14 3c
       0.031820044 0.009066241

exp_avg f4 [1, 2]
000000 5e 5a c3 3c a0 15 99 bc
       0.023846801 -0.01868707

exp_avg_sq f4 [1, 2]
000000 cc 30 9d 3c a1 b6 54 3f
       0.019188307 0.8309117

exp_avg f4 [1, 2]
000000 ee 1f 8d 3c 7e 6e 53 bb
       0.01722714 -0.0032261903

exp_avg_sq f4 [1, 2]
000000 24 ce 98 3c 86 2b 1d 3c
       0.018652983 0.009592896

exp_avg f4 [1, 2]
000000 58 96 4e bd 00 ad 11 3b
       -0.050436348 0.002222836

exp_avg_sq f4 [1, 2]
000000 ad 90 3a 3d 13 29 69 3f
       0.04554813 0.910783

exp_avg f4 [1, 2]
000000 4c f1 19 3c 1c 00 c1 bb
       0.009395909 -0.0058899056

exp_avg_sq f4 [1, 2]
000000 fe f2 cb 3b 08 2a af 3b
       0.0062240353 0.0053455867

exp_avg f4 [1, 2]
000000 ca 39 3a bd a0 20 b1 3b
       -0.04546527 0.0054055005

exp_avg_sq f4 [1, 2]
000000 50 fa 8f 3d 11 0d 7b 3f
       0.07030165 0.9806681

exp_avg f4 [1, 2]
000000 4b b8 47 3c 95 dc a9 bc
       0.012189935 -0.020735065

exp_avg_sq f4 [1, 2]
000000 79 a2 3f 3c ca 8e 8b 3c
       0.011696451 0.01703586

exp_avg f4 [1, 2]
000000 2c 8f 3d bd 00 56 eb 3b
       -0.046279117 0.007181883

exp_avg_sq f4 [1, 2]
000000 80 75 0a 3e 5b 63 85 3f
       0.13521385 1.0420946

exp_avg f4 [1, 2]
000000 7a ca 1d 3c f4 79 b6 bc
       0.009630794 -0.022274949

exp_avg_sq f4 [1, 2]
000000 0d b9 0b 3c 77 89 a8 3c
       0.008528006 0.02057336

exp_avg f4 [1, 2]
000000 dd 19 09 bd f0 ed 84 3c
       -0.03347193 0.016226739

exp_avg_sq f4 [1, 2]
000000 55 4e 33 3e de bd 81 3f
       0.1751035 1.0136068

exp_avg f4 [1, 2]
000000 f3 34 7d bc d6 82 c8 3c
       -0.015454519 0.02447645

exp_avg_sq f4 [1, 2]
000000 95 63 a2 3c 55 3e 4e 3d
       0.019822875 0.050352413

exp_avg f4 [1, 2]
000000 56 b2 51 3d 90 fa 66 bc
       0.051195465 -0.014097825

exp_avg_sq f4 [1, 2]
000000 c8 8e 3f 3e 6d e7 6d 3f
       0.1870681 0.9293125

exp_avg f4 [1, 2]
000000 b2 1d 8b bd e8 a6 ce 3d
       -0.06792773 0.100904286

exp_avg_sq f4 [1, 2]
000000 d5 c1 23 3f 89 a0 25 3f
       0.6396764 0.6469808

exp_avg f4 [1, 2]
000000 93 05 04 3d 1e 35 da 3d
       0.03223188 0.106546625

exp_avg_sq f4 [1, 2]
000000 c7 4f 42 3d 27 89 8a 3e
       0.047439363 0.27057764

exp_avg f4 [1, 2]
000000 d0 05 2a 3d 25 61 b7 bd
       0.04150945 -0.08954076

exp_avg_sq f4 [1, 2]
000000 37 2d 0d 3f a6 5f d0 3e
       0.5514712 0.40697974

exp_avg f4 [1, 2]
000000 7a 62 5e bd 83 4b 04 be
       -0.054293133 -0.1291943

exp_avg_sq f4 [1, 2]
000000 f8 7e 37 3e d2 4d 63 3e
       0.17919528 0.22197655

exp_avg f4 [1, 2]
000000 f8 08 b9 3e 66 ad 38 3e
       0.36139655 0.18034896

exp_avg_sq f4 [1, 2]
000000 99 28 46 40 27 d0 26 40
       3.096228 2.6064546

exp_avg f4 [1, 2]
000000 f6 52 13 bd ff 78 a4 bd
       -0.03596779 -0.08030891

exp_avg_sq f4 [1, 2]
000000 23 ca 91 3d 9a 04 bb 3d
       0.07118633 0.09131737

exp_avg f4 [1, 2]
000000 fd aa c1 3c 4a f8 af bd
       0.023641104 -0.08592279

exp_avg_sq f4 [1, 2]
000000 97 37 50 3d e6 ae 6e 3e
       0.050834265 0.23308906

exp_avg f4 [1, 2]
000000 c2 40 af bc 73 0d a0 bd
       -0.021393184 -0.07815065

exp_avg_sq f4 [1, 2]
000000 ab e3 9c 3d 71 a7 18 3f
       0.07660612 0.59630495

exp_avg f4 [1, 2]
000000 43 9b 01 be 50 35 10 bd
       -0.12656884 -0.035207093

exp_avg_sq f4 [1, 2]
000000 17 e2 99 3f 6f f9 2f 3e
       1.2022122 0.17184995

exp_avg f4 [1, 2]
000000 34 e4 0a 3d b8 17 e7 3d
       0.033909038 0.11283821

exp_avg_sq f4 [1, 2]
000000 64 2f fa 3c d7 df 0c 3e
       0.030540176 0.13757263

exp_avg f4 [1, 2]
000000 70 5a 5f be 12 d2 4f bc
       -0.21811843 -0.012684362

exp_avg_sq f4 [1, 2]
000000 83 98 b1 3f 33 0c 83 3e
       1.3874668 0.25595245

exp_avg f4 [1, 2]
000000 3a 50 46 3b 75 a3 eb 3c
       0.003026022 0.028764466

exp_avg_sq f4 [1, 2]
000000 50 bf 0c 3c 70 c2 76 3d
       0.008590534 0.060244024

exp_avg f4 [1, 2]
000000 00 56 a8 38 ca e8 c0 3c
       8.026883e-05 0.023548502

exp_avg_sq f4 [1, 2]
000000 21 21 12 3d a7 a4 14 3d
       0.035676125 0.036289837

exp_avg f4 [1, 2]
000000 74 e0 1a 3d 9b 88 d4 3d
       0.03781171 0.10377618

exp_avg_sq f4 [1, 2]
000000 81 d7 41 3d 6e 26 ee 3e
       0.04732466 0.46513695

exp_avg f4 [1, 2]
000000 1c 68 4f bb 77 ee 8d 3c
       -0.0031647747 0.017325623

exp_avg_sq f4 [1, 2]
000000 51 9d eb 3b 0a ee 4b 3c
       0.0071903844 0.01244689

exp_avg f4 [1, 2]
000000 bc f7 9a 3c 5a ff 84 3d
       0.018916957 0.06494017

exp_avg_sq f4 [1, 2]
000000 8d 83 83 3d 7b df 4a 3f
       0.06421576 0.79247254

exp_avg f4 [1, 2]
000000 d7 43 a3 bb 22 08 99 bc
       -0.0049824524 -0.018680636

exp_avg_sq f4 [1, 2]
000000 22 8c 56 3c d3 ea fc 3a
       0.013094934 0.0019296057

exp_avg f4 [1, 2]
000000 db 01 91 bc 3e 10 7d bd
       -0.01770108 -0.061783068

exp_avg_sq f4 [1, 2]
000000 32 e0 74 3d 1c 5d 4c 3f
       0.05978412 0.79829574

exp_avg f4 [1, 2]
000000 70 fa b3 be c0 8c 54 bd
       -0.35152006 -0.051892042

exp_avg_sq f4 [1, 2]
000000 33 82 90 40 d6 e0 07 3e
       4.5158935 0.13269362

exp_avg f4 [1, 2]
000000 a9 aa 18 3d 31 2f 09 3c
       0.03727213 0.008373068

exp_avg_sq f4 [1, 2]
000000 06 e8 8c 3c b8 77 63 3c
       0.017200481 0.013883524
