models/model_ring.pt (torch_old, 42714 bytes, 192 tensors)

model.0.w f4 [1, 2]
0	0xbf308c2a	-0.68963873
1	0xbf49b51b	-0.7879197

model.0.u f4 [1, 2]
0	0x3e6f2ac9	0.23356165
1	0xbe9213bd	-0.28530684

model.1.w f4 [1, 2]
0	0x3e33e147	0.17566405
1	0xbfa96d3a	-1.3236458

model.1.u f4 [1, 2]
0	0x3eaf3911	0.34223226
1	0xbf5b896a	-0.8575655

model.2.w f4 [1, 2]
0	0x3f10b777	0.56529945
1	0xbfee4a59	-1.8616439

model.2.u f4 [1, 2]
0	0xbbdac994	-0.006676862
1	0xbf31c420	-0.6943989

model.3.w f4 [1, 2]
0	0xbd09579d	-0.03353082
1	0x4023a9be	2.5572352

model.3.u f4 [1, 2]
0	0x3e4921dc	0.19641823
1	0x3f018fb8	0.5060992

model.4.w f4 [1, 2]
0	0x3f757d48	0.9589429
1	0xc011730a	-2.2726464

model.4.u f4 [1, 2]
0	0x3e9ff145	0.31238762
1	0xbee66daf	-0.45005557

model.5.w f4 [1, 2]
0	0x3f624220	0.8838215
1	0x4027ed1b	2.6238468

model.5.u f4 [1, 2]
0	0xbd4fcf23	-0.05073465
1	0x3f30bb70	0.69036007

model.6.w f4 [1, 2]
0	0x3e3d433f	0.18482684
1	0xbdaa7f37	-0.083250456

model.6.u f4 [1, 2]
0	0xbf1be938	-0.6090274
1	0x3f85299d	1.0403324

model.7.w f4 [1, 2]
0	0x3c5b926d	0.01340161
1	0xbe2e3899	-0.17013778

model.7.u f4 [1, 2]
0	0xbcdf64f5	-0.02726982
1	0x3f6d62c6	0.9272884

model.8.w f4 [1, 2]
0	0xbdde91cc	-0.10867652
1	0xbe21d06c	-0.15802163

model.8.u f4 [1, 2]
0	0x3e8b38b0	0.27191687
1	0x3f83a645	1.0285116

model.9.w f4 [1, 2]
0	0xc006b8d3	-2.1050308
1	0xbebc13ab	-0.36733755

model.9.u f4 [1, 2]
0	0xbf23a2bd	-0.63920194
1	0xbef6ac6b	-0.4817842

model.10.w f4 [1, 2]
0	0x3c738d56	0.01486524
1	0xbe3620d7	-0.17785965

model.10.u f4 [1, 2]
0	0xbbbe83db	-0.0058140582
1	0x3f85bd79	1.0448447

model.11.w f4 [1, 2]
0	0xbfb4b952	-1.4119055
1	0xbfc0e715	-1.5070521

model.11.u f4 [1, 2]
0	0xbe349da5	-0.17638262
1	0xbef8dcc6	-0.48605937

model.12.w f4 [1, 2]
0	0x3fc0423b	1.5020212
1	0xbeabca1d	-0.33552638

model.12.u f4 [1, 2]
0	0x3f09f7f4	0.5389397
1	0xbe6a54ea	-0.22883955

model.13.w f4 [1, 2]
0	0x402704fd	2.6096795
1	0x3f146902	0.5797273

model.13.u f4 [1, 2]
0	0x3f164e47	0.5871319
1	0x3e8c5896	0.27411336

model.14.w f4 [1, 2]
0	0x3e2d7950	0.16940808
1	0xbe0ce0ea	-0.13757673

model.14.u f4 [1, 2]
0	0xbf3fba70	-0.74893856
1	0x3ee94724	0.45562088

model.15.w f4 [1, 2]
0	0x3ec4184f	0.38299796
1	0xc012ffb1	-2.2968562

model.15.u f4 [1, 2]
0	0x3ea85a25	0.32881275
1	0xbe5389bb	-0.20658009

model.16.w f4 [1, 2]
0	0x3f936069	1.1513797
1	0x3f50285c	0.81311584

model.16.u f4 [1, 2]
0	0x3ec515a2	0.38493067
1	0x3ef4b768	0.47796178

model.17.w f4 [1, 2]
0	0x3e2ba555	0.16762288
1	0xbcd2f823	-0.025753086

model.17.u f4 [1, 2]
0	0xbfa089e2	-1.2542078
1	0xbe2afbc9	-0.16697611

model.18.w f4 [1, 2]
0	0x3e1dfffb	0.1542968
1	0x3e274f0c	0.16338748

model.18.u f4 [1, 2]
0	0xbeaac24b	-0.3335136
1	0xbe827bcd	-0.25485078

model.19.w f4 [1, 2]
0	0x3df986c8	0.121839106
1	0x3e2de0c6	0.16980276

model.19.u f4 [1, 2]
0	0xbf4ce802	-0.80041516
1	0xbf99f030	-1.2026424

model.20.w f4 [1, 2]
0	0xbe909eab	-0.28246054
1	0xc013a231	-2.3067744

model.20.u f4 [1, 2]
0	0xbea4f85c	-0.32220733
1	0xbf1bcb03	-0.60856646

model.21.w f4 [1, 2]
0	0xbc306001	-0.010765077
1	0xbe87b637	-0.26506206

model.21.u f4 [1, 2]
0	0x3d239661	0.039938334
1	0x3f89655b	1.0734056

model.22.w f4 [1, 2]
0	0x3f2bc0dd	0.6709116
1	0x3ff1eeaa	1.890096

model.22.u f4 [1, 2]
0	0x3ecb1fdc	0.39672744
1	0x3edde033	0.43335113

model.23.w f4 [1, 2]
0	0x3fb8a6ba	1.4425881
1	0xbfa466fb	-1.2843927

model.23.u f4 [1, 2]
0	0x3e664c37	0.22490011
1	0xbf12a4e4	-0.57282853

model.24.w f4 [1, 2]
0	0xbde07775	-0.109602846
1	0x3e4e7396	0.2016128

model.24.u f4 [1, 2]
0	0x3f21a03c	0.63135123
1	0xbf77205c	-0.9653375

model.25.w f4 [1, 2]
0	0x3f850ea7	1.0395097
1	0x3f35fb17	0.7108626

model.25.u f4 [1, 2]
0	0x3e97fde7	0.296859
1	0x3eb42bd5	0.3518969

model.26.w f4 [1, 2]
0	0xbe1bbe11	-0.15209223
1	0xbe25b8ee	-0.16183826

model.26.u f4 [1, 2]
0	0x3f1b5a19	0.60684353
1	0x3f4dfb91	0.80461985

model.27.w f4 [1, 2]
0	0x401f4877	2.488798
1	0xbec7a4db	-0.38992962

model.27.u f4 [1, 2]
0	0x3edc4356	0.43020123
1	0xbe30f1c2	-0.17279723

model.28.w f4 [1, 2]
0	0x408c029d	4.375319
1	0xbeae0b42	-0.33992964

model.28.u f4 [1, 2]
0	0x3f04a513	0.51814383
1	0x3df0fa22	0.11766459

model.29.w f4 [1, 2]
0	0x3f65769f	0.89634126
1	0xbf6a6319	-0.9155746

model.29.u f4 [1, 2]
0	0x3eae438c	0.3403591
1	0xbede62f1	-0.4343486

model.30.w f4 [1, 2]
0	0x3e353bb0	0.1769855
1	0x3d45c1fc	0.0482807

model.30.u f4 [1, 2]
0	0xbf4d19cc	-0.8011749
1	0xbf2d849e	-0.6778048

model.31.w f4 [1, 2]
0	0xbed352f8	-0.41274238
1	0xbffc2fb2	-1.9702055

model.31.u f4 [1, 2]
0	0xbe57daa5	-0.210795
1	0xbf1a21bf	-0.6020774

exp_avg f4 [1, 2]
0	0xbc0d82e4	-0.008637164
1	0x3b381efd	0.0028094642

exp_avg_sq f4 [1, 2]
0	0x3af1b2f1	0.001844017
1	0x3ac2bb4c	0.0014856844

exp_avg f4 [1, 2]
0	0x3b03437a	0.0020029233
1	0xbcfe2b70	-0.031026572

exp_avg_sq f4 [1, 2]
0	0x3c46061c	0.0120864175
1	0x3d8aa8ca	0.06770475

exp_avg f4 [1, 2]
0	0xbc8d56d3	-0.017253315
1	0xbafb1c02	-0.0019158127

exp_avg_sq f4 [1, 2]
0	0x3bdf2b1a	0.006810558
1	0x3a88ec59	0.0010446414

exp_avg f4 [1, 2]
0	0xbc6802c7	-0.014160818
1	0x3c79844f	0.015229299

exp_avg_sq f4 [1, 2]
0	0x3c9b8e20	0.018988669
1	0x3cd8a559	0.026446031

exp_avg f4 [1, 2]
0	0xbbc2f0de	-0.0059491238
1	0xb7c18d00	-2.3073051e-05

exp_avg_sq f4 [1, 2]
0	0x3a26538a	0.0006344846
1	0x3acb453f	0.0015508308

exp_avg f4 [1, 2]
0	0xbad07d70	-0.0015906524
1	0x3c8e8899	0.01739912

exp_avg_sq f4 [1, 2]
0	0x3cea5e6a	0.028609473
1	0x3c146512	0.0090573

exp_avg f4 [1, 2]
0	0x3a64bb9e	0.0008725467
1	0xb7b0f300	-2.109399e-05

exp_avg_sq f4 [1, 2]
0	0x392789c3	0.00015977681
1	0x398d548a	0.00026956602

exp_avg f4 [1, 2]
0	0xbae738e0	-0.0017640851
1	0xbc36dc94	-0.011160988

exp_avg_sq f4 [1, 2]
0	0x3d24720d	0.04014783
1	0x3c196614	0.009362716

exp_avg f4 [1, 2]
0	0x39443569	0.00018711913
1	0xba28888a	-0.00064290373

exp_avg_sq f4 [1, 2]
0	0x38dae6b5	0.000104380226
1	0x3899caa4	7.333353e-05

exp_avg f4 [1, 2]
0	0x3ba1cb8c	0.0049375948
1	0x3c68be05	0.01420546

exp_avg_sq f4 [1, 2]
0	0x3d2b928c	0.041887805
1	0x3c1beb72	0.009516584

exp_avg f4 [1, 2]
0	0x3a017e8b	0.0004939816
1	0xb9e3fd0d	-0.00043485351

exp_avg_sq f4 [1, 2]
0	0x386da3fa	5.665792e-05
1	0x380a8b95	3.303176e-05

exp_avg f4 [1, 2]
0	0xbb43f918	-0.002990311
1	0xbc497ff8	-0.0122985765

exp_avg_sq f4 [1, 2]
0	0x3d50effb	0.051010113
1	0x3c1eeccc	0.009700011

exp_avg f4 [1, 2]
0	0xbbbaf4b4	-0.0057054404
1	0xbda86e94	-0.08224216

exp_avg_sq f4 [1, 2]
0	0x3c63d657	0.013906083
1	0x3e93467f	0.28764722

exp_avg f4 [1, 2]
0	0x3b20c78c	0.0024533002
1	0x3ba99f04	0.005176427

exp_avg_sq f4 [1, 2]
0	0x3c148d36	0.00906687
1	0x3b0a6f55	0.0021123488

exp_avg f4 [1, 2]
0	0x39ecd840	0.00045174547
1	0xbd3921b0	-0.045198143

exp_avg_sq f4 [1, 2]
0	0x3b6afe7f	0.0035857258
1	0x3d8b8ead	0.068143226

exp_avg f4 [1, 2]
0	0xbc4658f1	-0.012106166
1	0x3bcefc4a	0.0063166963

exp_avg_sq f4 [1, 2]
0	0x3cae1260	0.021248996
1	0x3b9a8681	0.004715741

exp_avg f4 [1, 2]
0	0xba3a9932	-0.0007118165
1	0xbd1c9b52	-0.038234062

exp_avg_sq f4 [1, 2]
0	0x3c29d6d3	0.0103661595
1	0x3e0f9a71	0.14023758

exp_avg f4 [1, 2]
0	0x3ac2cdac	0.001486232
1	0x3c320a07	0.0108666485

exp_avg_sq f4 [1, 2]
0	0x3c58466a	0.013200382
1	0x3b896ffa	0.004194257

exp_avg f4 [1, 2]
0	0xba991283	-0.001167849
1	0x3a9c6610	0.0011932272

exp_avg_sq f4 [1, 2]
0	0x3a46ac39	0.0007578764
1	0x3ca6c0bd	0.020355577

exp_avg f4 [1, 2]
0	0x3bd9c076	0.0066452576
1	0xb975bd40	-0.00023435522

exp_avg_sq f4 [1, 2]
0	0x3c49ce44	0.012317244
1	0x3c04789a	0.008085394

exp_avg f4 [1, 2]
0	0x3bd67b35	0.006545449
1	0xbd1508e2	-0.036385424

exp_avg_sq f4 [1, 2]
0	0x3cc7198e	0.024304178
1	0x3ddc7b3b	0.10765692

exp_avg f4 [1, 2]
0	0xbb6601fc	-0.0035096398
1	0x3c284483	0.010270241

exp_avg_sq f4 [1, 2]
0	0x3b817cfe	0.003951668
1	0x3ba8377a	0.0051335664

exp_avg f4 [1, 2]
0	0xb9850e54	-0.00025378412
1	0x3b2068e9	0.0024476594

exp_avg_sq f4 [1, 2]
0	0x3aa69e06	0.001271189
1	0x3aaca6ec	0.0013172305

exp_avg f4 [1, 2]
0	0x3bde2228	0.006778974
1	0x3bcd9f5a	0.0062750997

exp_avg_sq f4 [1, 2]
0	0x3c81c046	0.015838753
1	0x3c80c70b	0.015719911

exp_avg f4 [1, 2]
0	0x3ba55d3d	0.0050465153
1	0x3a84dcf0	0.0010136645

exp_avg_sq f4 [1, 2]
0	0x3a198025	0.0005855582
1	0x3bf7d2ba	0.0075629624

exp_avg f4 [1, 2]
0	0xba4dff40	-0.00078581646
1	0x3ba1daec	0.0049394276

exp_avg_sq f4 [1, 2]
0	0x3c3d268a	0.011544833
1	0x3c1ff447	0.00976283

exp_avg f4 [1, 2]
0	0xb8a890c8	-8.037832e-05
1	0xbb446f71	-0.002997365

exp_avg_sq f4 [1, 2]
0	0x39137797	0.00014063563
1	0x3b1fe2e7	0.002439672

exp_avg f4 [1, 2]
0	0xbc974808	-0.018466964
1	0x3c8472a1	0.01616794

exp_avg_sq f4 [1, 2]
0	0x3c420811	0.0118427435
1	0x3c4e84f8	0.012604944

exp_avg f4 [1, 2]
0	0x3bd4313a	0.006475595
1	0xbd72a38c	-0.059238

exp_avg_sq f4 [1, 2]
0	0x3d5bfe02	0.053709038
1	0x3d96ed20	0.07369447

exp_avg f4 [1, 2]
0	0xbb730b24	-0.0037085498
1	0x3c5dff6d	0.013549668

exp_avg_sq f4 [1, 2]
0	0x3b7d95d8	0.003869405
1	0x3b93e05a	0.004512829

exp_avg f4 [1, 2]
0	0xbb94a77d	-0.0045365677
1	0x3a48d103	0.00076605397

exp_avg_sq f4 [1, 2]
0	0x39870677	0.00025754023
1	0x37259ed7	9.871749e-06

exp_avg f4 [1, 2]
0	0xbd0d6110	-0.034516394
1	0x3c82c0db	0.015961101

exp_avg_sq f4 [1, 2]
0	0x3c559e8a	0.013038287
1	0x3ca7c145	0.0204779

exp_avg f4 [1, 2]
0	0xb9c51c10	-0.00037595676
1	0x3a85375c	0.0010163593

exp_avg_sq f4 [1, 2]
0	0x3a9a36ff	0.0011765658
1	0x3b06b01d	0.002055175

exp_avg f4 [1, 2]
0	0xbc3b0958	-0.011415802
1	0x3c26ac0c	0.010172855

exp_avg_sq f4 [1, 2]
0	0x3c49650b	0.012292157
1	0x3c650a97	0.013979576

exp_avg f4 [1, 2]
0	0x3d2623d4	0.040561512
1	0xbce39753	-0.027782118

exp_avg_sq f4 [1, 2]
0	0x3e179cf8	0.14805973
1	0x3e3d3d26	0.18480358

exp_avg f4 [1, 2]
0	0xbbcf914b	-0.006334459
1	0x3a524558	0.0008021197

exp_avg_sq f4 [1, 2]
0	0x3b81ea57	0.003964703
1	0x3b05be1f	0.002040751

exp_avg f4 [1, 2]
0	0x3c23f8b2	0.010008024
1	0xbc2e9a9a	-0.010656977

exp_avg_sq f4 [1, 2]
0	0x3bdbb58f	0.006704993
1	0x3be8e432	0.007107281

exp_avg f4 [1, 2]
0	0xbb5a719a	-0.0033331872
1	0xbc0ef2e6	-0.008724904

exp_avg_sq f4 [1, 2]
0	0x3bce5d91	0.006297775
1	0x3bd58a6e	0.0065167462

exp_avg f4 [1, 2]
0	0x3cc394d9	0.023874687
1	0xbceaf59a	-0.028681565

exp_avg_sq f4 [1, 2]
0	0x3de7e183	0.1132231
1	0x3e12866e	0.14309093

exp_avg f4 [1, 2]
0	0x3ba79ffe	0.005115508
1	0xbadbacb8	-0.0016759848

exp_avg_sq f4 [1, 2]
0	0x3baf4674	0.005348975
1	0x3be49409	0.006975655

exp_avg f4 [1, 2]
0	0x3bd9bd4d	0.006644881
1	0xbb87bc2c	-0.004142305

exp_avg_sq f4 [1, 2]
0	0x3b237ca6	0.0024946122
1	0x3915eb4f	0.00014297407

exp_avg f4 [1, 2]
0	0xbd0e8e6c	-0.034803793
1	0x3c471285	0.0121504115

exp_avg_sq f4 [1, 2]
0	0x3c9fa91f	0.019489823
1	0x3cbe5e31	0.023238273

exp_avg f4 [1, 2]
0	0x3cd82513	0.026384866
1	0xbc625406	-0.013813978

exp_avg_sq f4 [1, 2]
0	0x3cea1843	0.028576022
1	0x3dceb27c	0.10092637

exp_avg f4 [1, 2]
0	0xbc6f3c38	-0.01460176
1	0x3c46b7d3	0.012128788

exp_avg_sq f4 [1, 2]
0	0x3bf52d6a	0.0074822204
1	0x3c709075	0.014682879

exp_avg f4 [1, 2]
0	0xbbd71e20	-0.0065648705
1	0x3b9a49aa	0.0047084885

exp_avg_sq f4 [1, 2]
0	0x3abae21f	0.0014258063
1	0x399e40d2	0.00030184403

exp_avg f4 [1, 2]
0	0x3cc89464	0.02448482
1	0xbc461c0e	-0.01209165

exp_avg_sq f4 [1, 2]
0	0x3c95c0ad	0.018280352
1	0x3cf9f82d	0.030513847

exp_avg f4 [1, 2]
0	0x3bfbd9ff	0.0076858993
1	0x3c1fa4d6	0.00974389

exp_avg_sq f4 [1, 2]
0	0x3ae6f8b9	0.0017621733
1	0x3b5aea43	0.003340379

exp_avg f4 [1, 2]
0	0xbc391261	-0.011295886
1	0x3ce8f318	0.028436229

exp_avg_sq f4 [1, 2]
0	0x3c92dd44	0.017927773
1	0x3cd70bc4	0.026250727

exp_avg f4 [1, 2]
0	0xbd38bdc4	-0.04510285
1	0x3da969b1	0.08272112

exp_avg_sq f4 [1, 2]
0	0x3d9448f4	0.07240477
1	0x3e7bf066	0.24603423

exp_avg f4 [1, 2]
0	0x3c822e46	0.015891206
1	0xbc679e4c	-0.014136862

exp_avg_sq f4 [1, 2]
0	0x3c02b151	0.007976846
1	0x3c5d654e	0.013512922

exp_avg f4 [1, 2]
0	0x3a9b75c6	0.0011860661
1	0xbba82f06	-0.0051325588

exp_avg_sq f4 [1, 2]
0	0x3a2c5c4b	0.0006575032
1	0x3ac02c2d	0.0014661603

exp_avg f4 [1, 2]
0	0x3b4336ec	0.0029787375
1	0x3bdade88	0.00667936

exp_avg_sq f4 [1, 2]
0	0x3c9b0915	0.01892523
1	0x3cdac3b1	0.026704641

exp_avg f4 [1, 2]
0	0x3ca29c9b	0.019850066
1	0x3b209d70	0.0024507903

exp_avg_sq f4 [1, 2]
0	0x3d0b0dad	0.03394859
1	0x3dc34a55	0.09535662

exp_avg f4 [1, 2]
0	0xbc0cc065	-0.008590792
1	0xbaa37890	-0.0012471844

exp_avg_sq f4 [1, 2]
0	0x3bfcdb01	0.007716537
1	0x3c520341	0.012818159

exp_avg f4 [1, 2]
0	0xbb9a4887	-0.004708353
1	0xbc57cb6b	-0.013171057

exp_avg_sq f4 [1, 2]
0	0x38e171a1	0.00010750001
1	0x3b2d5467	0.0026448013

exp_avg f4 [1, 2]
0	0xbc9db7a2	-0.019252602
1	0x3d1758cf	0.03694993

exp_avg_sq f4 [1, 2]
0	0x3cdf38b6	0.027248722
1	0x3cef3854	0.029201664

exp_avg f4 [1, 2]
0	0x3850b009	4.975501e-05
1	0x3af8bcbb	0.0018977145

exp_avg_sq f4 [1, 2]
0	0x3715d0d4	8.929714e-06
1	0x39c250e2	0.00037062826

exp_avg f4 [1, 2]
0	0xbce08c33	-0.027410602
1	0x3d35c2c8	0.04437521

exp_avg_sq f4 [1, 2]
0	0x3ce602bb	0.028077474
1	0x3d08a2fc	0.03335856

exp_avg f4 [1, 2]
0	0x3bdbd3c3	0.0067085936
1	0x3b67b6fe	0.0035356875

exp_avg_sq f4 [1, 2]
0	0x3bcc796c	0.0062400606
1	0x3bf17ac1	0.0073693697

exp_avg f4 [1, 2]
0	0xbc84fbe8	-0.0162334
1	0x3d182ca6	0.037151955

exp_avg_sq f4 [1, 2]
0	0x3ca0286e	0.019550528
1	0x3cdd3313	0.027001893

exp_avg f4 [1, 2]
0	0xbca01857	-0.019542856
1	0xbca069aa	-0.019581635

exp_avg_sq f4 [1, 2]
0	0x3e000b43	0.12504296
1	0x3e497b9c	0.1967606

exp_avg f4 [1, 2]
0	0xbaf406a4	-0.0018617702
1	0x3c61994f	0.013769462

exp_avg_sq f4 [1, 2]
0	0x3c0ad3ce	0.00847335
1	0x3bb391b1	0.0054800143

exp_avg f4 [1, 2]
0	0xbc0562c0	-0.00814122
1	0x3b2c24c2	0.0026267027

exp_avg_sq f4 [1, 2]
0	0x3a92203b	0.0011148521
1	0x3893f47a	7.0550435e-05

exp_avg f4 [1, 2]
0	0xbd531a83	-0.051538955
1	0x3cb26f7b	0.021781674

exp_avg_sq f4 [1, 2]
0	0x3ce51ea3	0.02796871
1	0x3d1f4234	0.038881496
